hw3/convnet-based/model_trained/net_F32B8E4_epoch_120.pth (torch, 815037 bytes, 56 tensors)

weight f4 [32, 3, 3, 3]
0	0xbe235c2c	-0.1595313
1	0xbb9e2a54	-0.0048268232
2	0xbd37eea5	-0.044905324
3	0xbd41f1e9	-0.047349844
4	0x3e28e48f	0.16493438
5	0x3e1b056c	0.15138787
6	0x3da9deb5	0.08294431
7	0x3b720466	0.0036928891
8	0x3deb13bb	0.11478373
9	0xbdc67b06	-0.096914336
10	0xbdad89de	-0.08473562
11	0x3ce2c593	0.027682101
12	0xbe203ce6	-0.15648231
13	0x3d7c4294	0.06158693
14	0x3dc18d15	0.094507374
15	0x3e357ecb	0.17724149
16	0x3e2048bd	0.15652747
17	0xbda40334	-0.080084234
18	0x3e0ebacd	0.13938446
19	0x3e1cad7c	0.15300554
20	0x3e1ca212	0.152962
21	0xbde806d2	-0.11329426
22	0xbd3a84ee	-0.045536928
23	0xbde93dac	-0.11388716
24	0x3e1da9a7	0.15396748
25	0x3e267af3	0.16257839
26	0x3e1c657b	0.15273087
27	0xbcf58eae	-0.029975262
28	0xbe0acfab	-0.13555782
29	0xbda07fe7	-0.078368954
30	0xbd39971c	-0.045310125
31	0x3d57cccf	0.052685555
32	0x3ca2f3ff	0.019891737
33	0x3e401447	0.18757735
34	0xbd1dc0ea	-0.038514055
35	0x3e2985dd	0.16554971
36	0x3e0d8fe7	0.13824426
37	0x3d89e460	0.06733012
38	0x3cf8f562	0.030390445
39	0xbd104f6d	-0.035231996
40	0xbe1dd561	-0.15413429
41	0xbce500c2	-0.027954463
42	0x3db94c95	0.0904781
43	0x3e26f674	0.16304952
44	0xbe486d6d	-0.19572993
45	0xbe42f4e1	-0.19038726
46	0xbc80743b	-0.015680423
47	0xbdd215ec	-0.102580875
48	0xbd72887e	-0.0592122
49	0x3c7066a2	0.014672907
50	0x3e589ca7	0.21153508
51	0xbe13cb82	-0.14433101
52	0xbda99ea0	-0.082822084
53	0x3e143276	0.14472374
54	0x3deca086	0.11554055
55	0x3e14a780	0.14517021
56	0xbe25ef97	-0.16204678
57	0x3d9c699b	0.0763733
58	0x3e52f2d4	0.20600444
59	0x3cbb52d6	0.022866648
60	0x3da7c51b	0.08191892
61	0xbe1ad2e6	-0.15119514
62	0xbd6a9065	-0.05726661
63	0xbe1e8e82	-0.1548405
64	0x3da006d5	0.07813803
65	0x3e1d5002	0.15362552
66	0x3d81d38b	0.06339177
67	0xbe38c73f	-0.18044756
68	0xbdab0ec3	-0.08352425
69	0x3cc9bb77	0.024625523
70	0xbd7abf00	-0.061217308
71	0xbde0edc8	-0.10982853
72	0xbdcccb41	-0.09999705
73	0xbe442d79	-0.19157971
74	0xbd7be263	-0.061495196
75	0x3e49a240	0.196908
76	0xbe3e2317	-0.18568073
77	0xbdcb5415	-0.09928147
78	0xbc873826	-0.016506266
79	0xbdc0bb27	-0.094106965
80	0x3dda2ce4	0.106530935
81	0xbe260bb9	-0.1621541
82	0x3d930151	0.071779855
83	0x3e16d0a5	0.14728029
84	0x3e1946cb	0.14968412
85	0xbe2ca9bd	-0.16861625
86	0x3d7a2a4a	0.061075486
87	0x3e388eb0	0.18023181
88	0x3e1c0a26	0.15238246
89	0x3e156290	0.1458838
90	0xbe318770	-0.17336822
91	0xbe1cf8f1	-0.15329339
92	0x3dfc40c4	0.123170406
93	0x3e3bb55c	0.18330902
94	0x3e4c23d1	0.19935538
95	0x3df3e6e7	0.119092755
96	0x3e112d1e	0.14177367
97	0x3e1dc88a	0.15408531
98	0x3daa1420	0.0830462
99	0x3dbde3af	0.09271943
100	0xbbce10ee	-0.0062886393
101	0xbdfe800f	-0.12426769
102	0xbd1b4178	-0.037904233
103	0xbcf401f8	-0.029786095
104	0x3dc4dd78	0.09612554
105	0x3d9f15d8	0.07767838
106	0xbe1f95d3	-0.15584497
107	0xbe45aebb	-0.19304936
108	0xbe23ed32	-0.16008452
109	0x3d10e098	0.03537044
110	0x3e082e71	0.13298966
111	0xbd902d12	-0.070398465
112	0xbdd569c8	-0.10420567
113	0x3df45c4c	0.11931667
114	0xbe2b4f28	-0.16729414
115	0xbdc49161	-0.09598041
116	0xbd9d04f7	-0.076669626
117	0x3d8bfcbf	0.06835317
118	0x3da410f8	0.08011049
119	0xbe3b36b0	-0.1828258
120	0xbe04489e	-0.12918326
121	0x3e007020	0.12542772
122	0x3e5b23ae	0.2140033
123	0x3dd26dc1	0.1027484
124	0x3e315005	0.17315681
125	0xbdd787d6	-0.105239555
126	0xbdfb48d6	-0.12269752
127	0x3e3c7d76	0.18407235
128	0x3df853e9	0.121253796
129	0x3e19c43f	0.15016268
130	0xbdc22b55	-0.09480921
131	0x3dac266f	0.08405768
132	0xbe436fb9	-0.19085588
133	0xbdd73f24	-0.1051009
134	0x3d4c0f05	0.04981901
135	0x3e132bd3	0.14372186
136	0xbda230f7	-0.079194956
137	0x3d9d1cda	0.076715186
138	0x3e489512	0.19588116
139	0xbe209ce4	-0.15684849
140	0x3d89addf	0.067226164
141	0x3de5990c	0.11210832
142	0xbdf9e986	-0.12202744
143	0x3df96004	0.12176517
144	0xbe3f3a15	-0.186745
145	0xbe38ea28	-0.18058074
146	0x3ceca769	0.028888421
147	0xbdb5b1e4	-0.088718206
148	0xbe4844a1	-0.1955743
149	0xbcf28bb2	-0.029607628
150	0xbd92a0d4	-0.07159582
151	0xbd9a12eb	-0.075231396
152	0x3e3f9e09	0.1871263
153	0xbd896058	-0.06707829
154	0xbdd137af	-0.10215699
155	0x3db99f5e	0.090636
156	0xbcf81146	-0.030281674
157	0xbe1dfaee	-0.15427753
158	0xbc9f2800	-0.019428253
159	0x3d11e246	0.03561618
160	0xbd2b9579	-0.041890595
161	0x3e3c9853	0.18417482
162	0x3d92b261	0.07162929
163	0xbdb59cba	-0.08867784
164	0x3cc65d81	0.024214508
165	0x3dc6ad9b	0.09701081
166	0xbd657a65	-0.056024928
167	0xbe49b62b	-0.19698398
168	0x3d5adbf4	0.05343242
169	0xbd8f93d2	-0.07010616
170	0x3e18801e	0.14892623
171	0x3d4f2cf4	0.05057998
172	0xbd228b44	-0.039683595
173	0x3e357230	0.1771934
174	0x3dbdeaa1	0.092732675
175	0x3e1ac2e4	0.15113407
176	0x3d751cb6	0.059841834
177	0x3d43d139	0.047806952
178	0x3d65af78	0.056075543
179	0xbdb9f738	-0.09080356
180	0x3cf4aaac	0.029866539
181	0xbe288638	-0.1645745
182	0xbe242e53	-0.16033296
183	0xbe1bb179	-0.15204419
184	0x3e248600	0.16066742
185	0x3e28e996	0.16495356
186	0xbd914549	-0.07093293
187	0x3e1491b1	0.14508702
188	0x3e3a83f4	0.18214399
189	0x3e4821b4	0.19544107
190	0xbe1eef20	-0.15520906
191	0xbd2f67c0	-0.042823553
192	0x3d8486d1	0.06471027
193	0x3e13fdd5	0.14452298
194	0x3e0cb353	0.13740282
195	0x3da33516	0.0796911
196	0xbe302247	-0.17200576
197	0x3d2854ae	0.04109638
198	0xbe10820e	-0.14112112
199	0x3d632bd0	0.055461705
200	0x3c692e26	0.014232194
201	0x3df26357	0.11835354
202	0xbc538dc5	-0.012912218
203	0x3d2365c5	0.039891977
204	0x3e28fad4	0.16501933
205	0x3df3127c	0.1186876
206	0xbe407efa	-0.18798438
207	0xbe040feb	-0.12896697
208	0x3daf0b05	0.08547024
209	0xbe0d3ad2	-0.1379197
210	0xbdc53584	-0.09629348
211	0x3e3bda38	0.18344963
212	0xbe2b7059	-0.16742076
213	0x3a8c3dda	0.0010699586
214	0xbe012bd8	-0.12614381
215	0xbc7cc9da	-0.015428985
216	0x3e1eff32	0.15527037
217	0xbe247d96	-0.16063532
218	0xbd40d106	-0.04707434
219	0x3d522960	0.05130899
220	0xbe0fa65e	-0.14028308
221	0x3e098fb8	0.1343373
222	0xbdd7fe5e	-0.105465636
223	0x3df427df	0.11921667
224	0xbe20783a	-0.15670863
225	0x3e13649d	0.1439385
226	0x3e041148	0.12897217
227	0x3cbe55e2	0.023234311
228	0xbd1f3bb5	-0.0388753
229	0xba3d0b4c	-0.0007211461
230	0xbe3ea70f	-0.18618415
231	0xbda3a0dc	-0.07989666
232	0xbe17cd98	-0.14824522
233	0xbdcf32f1	-0.10117138
234	0xbe3a6d3f	-0.18205737
235	0x3e345aba	0.17612734
236	0x3d69a74d	0.057044316
237	0xbd817da3	-0.063227914
238	0xbe1b0ca6	-0.15141544
239	0xbd713dc2	-0.058896787
240	0x3bea21d2	0.007145145
241	0xbd8de417	-0.0692827
242	0x3da6da26	0.08147077
243	0xbdf4ca16	-0.11952607
244	0xbd065d9f	-0.032804128
245	0x3e0bbf23	0.13647132
246	0xbdd5a800	-0.10432434
247	0xbbe18480	-0.0068822503
248	0xbd96d73d	-0.07365272
249	0x3e3ad9c0	0.18247128
250	0xbe0188d2	-0.12649849
251	0xbd8cefc9	-0.06881673
252	0x3e363f32	0.17797545
253	0x3e39ca33	0.18143539
254	0x3ceee563	0.029162114
255	0x3ccc6a53	0.024953043

bias f4 [32]
0	0xbc5e0f41	-0.0135534415
1	0x3d9286e6	0.07154636
2	0x3e19c69b	0.15017168
3	0x3de0e04e	0.10980283
4	0xbe331959	-0.17490138
5	0x3cf44113	0.029816186
6	0xbe0699ed	-0.13144656
7	0x3e2699b2	0.16269568
8	0x3d0d496f	0.03449386
9	0xbd11ad00	-0.035565376
10	0x396ddd07	0.0002268442
11	0x3d51c3ea	0.05121223
12	0x3e054e95	0.13018258
13	0xbdb43fe4	-0.08801249
14	0xbd33f94b	-0.043938916
15	0xbe0596fa	-0.13045874
16	0x3def2fb5	0.11679021
17	0x3d4e5b39	0.050379965
18	0x3ce76060	0.028244197
19	0x3c46a21c	0.012123611
20	0xbb86f890	-0.0041189864
21	0x3c959799	0.018260764
22	0x3d9e3285	0.077244796
23	0xbd9a5ecb	-0.075376116
24	0xbcd142d6	-0.025544565
25	0x3e3e24e8	0.18568766
26	0xbc4780fb	-0.012176747
27	0x3e36defb	0.17858498
28	0x3da6ad87	0.081385665
29	0x3e19adbc	0.1500768
30	0x3d5186e7	0.051154044
31	0x3be331d4	0.00693343

weight f4 [128, 32, 1, 1]
0	0x3dd0eeb6	0.102017805
1	0x3bae1d5b	0.005313558
2	0xbdfd17eb	-0.123580776
3	0xbcadd232	-0.021218393
4	0xbdbaf571	-0.091288455
5	0x3c04bd22	0.008101733
6	0x3dd11804	0.10209659
7	0x3e15bc9d	0.14622732
8	0x3d994301	0.07483483
9	0x3d57961e	0.052633397
10	0xbde75321	-0.112951525
11	0x3e392e63	0.18084101
12	0xbdc9353c	-0.09824607
13	0xbc584420	-0.013199836
14	0xbe0ea428	-0.13929808
15	0x3c18a883	0.00931752
16	0xbe05b24b	-0.13056295
17	0xbd0c37c1	-0.03423286
18	0x3dd75bd9	0.105155654
19	0xbe2f35fb	-0.17110436
20	0x3dfbed08	0.123010695
21	0x3c4e961b	0.01260903
22	0xbde843bf	-0.113410465
23	0xbd0aa115	-0.033845026
24	0x3d96b9b0	0.07359636
25	0xbd161589	-0.03664163
26	0x3ca47c80	0.020078897
27	0x3c31f8f1	0.010862575
28	0xbdb08643	-0.086193584
29	0x3e271718	0.16317403
30	0x3e2badc1	0.167655
31	0x3bc58b26	0.0060285507
32	0xbe00ed80	-0.12590599
33	0xbdd36469	-0.10321886
34	0xbd932b76	-0.07186024
35	0xbdeb8720	-0.115003824
36	0x3e5d49d1	0.2161019
37	0xbe07fd26	-0.13280162
38	0xbd9d299d	-0.07673953
39	0xbd9aa124	-0.075502664
40	0xbd2ae5e8	-0.041723162
41	0x3d68da11	0.05684859
42	0xbe27b285	-0.16376694
43	0xbdf7628d	-0.12079344
44	0xbc9b0d24	-0.018927164
45	0x3df59578	0.119913995
46	0x3dd51ee9	0.10406286
47	0x3c22d188	0.009937651
48	0x3dc90851	0.09816039
49	0xbd99af67	-0.075041585
50	0xbb25d617	-0.002530461
51	0xbe055765	-0.1302162
52	0xbdce7095	-0.10080067
53	0xbdad58d0	-0.08464205
54	0xbd9cbfba	-0.076537564
55	0x3d2bcbda	0.041942455
56	0xbdd9d8d4	-0.1063706
57	0x3ca8c9af	0.020603983
58	0x3d6219e0	0.055200458
59	0xbe0792d6	-0.13239607
60	0x3bda8afb	0.0066694
61	0xbd393244	-0.045213953
62	0x3c8fe350	0.017564446
63	0xbe08c1bb	-0.13355152
64	0xbda59b82	-0.080863014
65	0x3e15e4ad	0.14638014
66	0x3d3ebc79	0.04656646
67	0x3c70cbd1	0.014697031
68	0x3e4d8155	0.20068868
69	0xbd87d134	-0.06631699
70	0x3e3415a1	0.17586376
71	0xb9502b94	-0.0001985266
72	0x3ba227c6	0.004948589
73	0xbe3a840f	-0.18214439
74	0xbb96294a	-0.0045825588
75	0xbdbbe14d	-0.09173832
76	0xbe1694f5	-0.1470526
77	0x3ba786e1	0.0051125144
78	0x3bca335a	0.0061706724
79	0x3dcd08e9	0.10011465
80	0xbd907f18	-0.07055491
81	0x3d399651	0.04530937
82	0xbdff7bcf	-0.124747865
83	0xbcbc3bb7	-0.022977693
84	0x3dc5c23f	0.0965619
85	0xbdbea37f	-0.09308528
86	0x3df1c227	0.1180461
87	0x3d53b0da	0.05168233
88	0x3e434681	0.19069864
89	0x3d1696c5	0.03676488
90	0x3d7ea997	0.062173452
91	0x3dfb1a01	0.12260819
92	0xbe082dd7	-0.13298737
93	0xbd0deba1	-0.03464854
94	0x3d4c8a78	0.04993674
95	0xbdd7b2b6	-0.10532133
96	0xbe2092bd	-0.15680976
97	0xbe13d603	-0.14437108
98	0xbe27e316	-0.1639522
99	0xbd8240b4	-0.063599974
100	0x3e22b3c3	0.15888886
101	0x3dec5e56	0.11541431
102	0xbd47282f	-0.048622306
103	0x3de2ada2	0.11068274
104	0x3ce7582c	0.028240286
105	0xbe043524	-0.12910897
106	0x3da03702	0.07822992
107	0xbc12b955	-0.008955319
108	0xbbdfca1c	-0.0068295132
109	0xbe0554a1	-0.13020565
110	0x3de74959	0.11293287
111	0x3d11c4bf	0.035588022
112	0xbd4dd7a9	-0.050254498
113	0x3dee7157	0.116427116
114	0xbde3ac54	-0.11116853
115	0xbdf07725	-0.11741475
116	0x3cbe8d78	0.023260817
117	0x3dd3ce56	0.1034209
118	0x3e1078eb	0.14108627
119	0x3deb25d8	0.114818275
120	0xbd43d5b8	-0.04781124
121	0x3c3367fa	0.010950083
122	0xbd5b18e3	-0.05349053
123	0x3b1ebdf2	0.0024222103
124	0x3d8b0275	0.06787578
125	0xbd7e4a8b	-0.06208281
126	0xbd674388	-0.056460887
127	0x3dba9127	0.09109717
128	0x3cfc553b	0.03080236
129	0x3e4511dc	0.19245094
130	0xbe20bfd7	-0.15698181
131	0xbc5b3be5	-0.013380979
132	0xbdbd9730	-0.09257352
133	0x3cc8baef	0.0245032
134	0x3e3766f1	0.17910363
135	0x3d96919c	0.073519915
136	0xbd134a4c	-0.035959527
137	0xbe009121	-0.12555362
138	0xbdcff9de	-0.1015508
139	0x3bed5699	0.0072429893
140	0xbd8ba9a0	-0.06819463
141	0xbdbff215	-0.09372345
142	0xbc99443e	-0.018709298
143	0xbdc65dcd	-0.0968586
144	0xbdd573fd	-0.10422514
145	0x3e30c149	0.17261232
146	0xbcfb67ca	-0.030689139
147	0xbe0c13a8	-0.13679373
148	0x3d7c0836	0.061531268
149	0x3dcb21cc	0.099185556
150	0xbd223496	-0.03960093
151	0xbd21dd89	-0.039517913
152	0xba17af0f	-0.00057862786
153	0x3d93e5cf	0.07221567
154	0xbdd3de72	-0.103451625
155	0xbda5f8d5	-0.081041016
156	0xbdb31075	-0.08743373
157	0xba83a402	-0.0010043385
158	0x3daa9703	0.083295844
159	0x3dea2a9b	0.114339076
160	0xbda34559	-0.079722114
161	0x3d3d8177	0.046266045
162	0x3d82df7d	0.06390283
163	0xbdd50349	-0.10401017
164	0xbc20e8c8	-0.009821124
165	0xbb890a4a	-0.0041821348
166	0xbc9b6fdb	-0.018974235
167	0xbb9eeca3	-0.0048499866
168	0x3b94d41f	0.0045418884
169	0xbcb40762	-0.021976177
170	0x3d8a8b51	0.06764854
171	0x3da8f3fd	0.08249662
172	0x3bff39a4	0.0077888537
173	0x3cf84c31	0.030309768
174	0x3d7d5464	0.06184806
175	0x3e5aaa9c	0.21354145
176	0x3d5e3c99	0.05425701
177	0x3d2ee2cb	0.042696755
178	0x3dc13b73	0.09435167
179	0xbdd3952b	-0.10331186
180	0xbc9c94ce	-0.019113924
181	0xbd1887aa	-0.037238754
182	0xbe029bcf	-0.12754749
183	0xbe6d4d26	-0.23173961
184	0xbe271335	-0.1631592
185	0xbe165afc	-0.14683145
186	0x3d9ed71c	0.077558726
187	0xbc1e9c54	-0.009680826
188	0xbd243d2d	-0.040097404
189	0x3e39eef1	0.18157555
190	0xba940e23	-0.0011295717
191	0xbd479aee	-0.048731737
192	0x3e1c296a	0.15250173
193	0xbe3e6ecf	-0.18596958
194	0x3e214b65	0.15751417
195	0x3d758a67	0.059946444
196	0xbdc1b246	-0.09457831
197	0xbd8cb03f	-0.06869554
198	0xbd9c2c85	-0.07625679
199	0xbd188cee	-0.037243776
200	0xbdd186c8	-0.102307856
201	0xbe3725d0	-0.17885518
202	0xbd96c114	-0.073610455
203	0x3d956f73	0.07296648
204	0x3e1ca162	0.15295938
205	0x3e0ad693	0.13558416
206	0xbc5d6cc9	-0.013514706
207	0xbd3e6f79	-0.046493027
208	0x3e4460bf	0.1917753
209	0x3d891c64	0.06694868
210	0xbd96e57c	-0.073679894
211	0x3e224d5d	0.15849824
212	0xbbd18f8b	-0.0063952855
213	0x3db386d3	0.0876595
214	0x3d964293	0.07336917
215	0xbdabe2b7	-0.08392852
216	0xbe112437	-0.14173971
217	0x3de98979	0.11403174
218	0xbcfc11eb	-0.030770263
219	0xbe026c30	-0.12736583
220	0x3d5c5587	0.053792503
221	0xbda98a56	-0.082783386
222	0xbd69f9c1	-0.05712295
223	0x3d3c6eb8	0.046004027
224	0x3db16ab4	0.0866293
225	0xbd3f6e76	-0.046736203
226	0x3e27bd3b	0.1638078
227	0x3dfe3c3d	0.12413833
228	0xbc84e365	-0.016221711
229	0xbe16681b	-0.1468815
230	0x3dd12922	0.102129236
231	0x3c94d426	0.018167567
232	0x3d7c2274	0.061556295
233	0xbe0df336	-0.13862309
234	0xbd03c949	-0.032174382
235	0x3da32911	0.07966817
236	0x3d6a9712	0.057272978
237	0xbd191b19	-0.037379358
238	0x3dbc86ae	0.092053756
239	0xbd4a036a	-0.049319662
240	0x3dca8c9e	0.09890102
241	0xbd358cf5	-0.04432388
242	0xbd96883e	-0.07350205
243	0x3dfa742e	0.12229191
244	0xbe28f09e	-0.16498038
245	0xbd7fc56e	-0.062444143
246	0x3e19076f	0.14944242
247	0x3e43b19f	0.19110726
248	0x3cfb1a13	0.030652082
249	0x3dc1fc66	0.09471969
250	0xbde6e648	-0.112743914
251	0x3c8f6097	0.017502112
252	0xbe03a17d	-0.12854572
253	0xbe054f89	-0.13018622
254	0xbd8ec66a	-0.06971438
255	0xbe189e96	-0.14904246

bias f4 [128]
0	0x3de0b307	0.10971647
1	0x3dea8638	0.114513814
2	0x3be0b5f8	0.00685763
3	0x3e2e152a	0.17000261
4	0x3e2cf9ad	0.16892119
5	0x3de2284e	0.11042844
6	0xbd6d7bb6	-0.057979308
7	0x3db48992	0.08815302
8	0x3e31632c	0.17322987
9	0xbd89e065	-0.06732253
10	0x3d9530f2	0.07284726
11	0xbd1853e3	-0.037189376
12	0xbd35ad37	-0.044354644
13	0x3dafcd01	0.08584023
14	0x3e0bd164	0.13654095
15	0xbdb6ff59	-0.089354225
16	0x3d7f2cf0	0.062298715
17	0xbde53563	-0.11191823
18	0xbd9db3a4	-0.07700279
19	0xbd44184c	-0.047874734
20	0xbe26291d	-0.16226621
21	0x3e109248	0.14118302
22	0x3dca5bfb	0.09880825
23	0xbc9c632f	-0.019090263
24	0xbd9a7eb3	-0.07543697
25	0xbe0347ec	-0.12820405
26	0x3ce06fb2	0.02739701
27	0x3e1454a1	0.14485408
28	0xbd83d0b8	-0.06436294
29	0xbdc4f706	-0.096174285
30	0x3b1e6446	0.0024168654
31	0xbe1b5e92	-0.15172794
32	0x3e2396fd	0.15975566
33	0x3dc8b259	0.09799642
34	0x3dfb3c78	0.12267393
35	0xbd10ed84	-0.035382763
36	0xbdc91398	-0.0981819
37	0x3ce14fe7	0.02750392
38	0xbd118ea6	-0.03553643
39	0x3cf0c0bf	0.029388783
40	0x3e207f56	0.15673575
41	0x3c0b11f5	0.008488168
42	0xbb4513ae	-0.0030071544
43	0xbe0e6c8a	-0.13908592
44	0x3d1b9dff	0.037992474
45	0x3dcf1393	0.10111155
46	0xbe0e0f2e	-0.13872978
47	0x3d66fca1	0.05639327
48	0x3e174f03	0.14776234
49	0xbe27662b	-0.16347568
50	0xbd247b8b	-0.040156882
51	0x3d8cff38	0.068846166
52	0x3e324317	0.17408405
53	0xbd9da972	-0.07698335
54	0x3d7a3b99	0.061091993
55	0xbdf8a9e4	-0.12141779
56	0xbd670ae4	-0.05640687
57	0x3e16eb3f	0.14738177
58	0x3dc62b82	0.09676267
59	0xbe0b90de	-0.13629481
60	0x3dc2cbc7	0.09511524
61	0xbd95825b	-0.07300254
62	0xbe19afb8	-0.15008438
63	0xbded3757	-0.11582821
64	0x3d87f153	0.06637826
65	0x3dc136ce	0.09434281
66	0xbdf077fa	-0.11741634
67	0x3e123897	0.142794
68	0x3e1967cf	0.14981006
69	0xbd857d32	-0.0651802
70	0xbd16b254	-0.03679116
71	0xbd17bf52	-0.03704769
72	0x3c98b615	0.018641511
73	0x3d98e92c	0.07466349
74	0x3d843d9d	0.06457064
75	0xbcff897a	-0.031193484
76	0xbbd917ba	-0.006625143
77	0x3d7d3bf1	0.061824743
78	0x3d3ceb39	0.046122763
79	0x3db3e305	0.08783535
80	0xbe291123	-0.16510443
81	0x3e037000	0.12835693
82	0xbd88dd70	-0.06682861
83	0xbdc7a791	-0.09748758
84	0xbd0872b7	-0.033312526
85	0x3cb16194	0.021652974
86	0xbe18fdfb	-0.14940636
87	0xbdd372dd	-0.10324643
88	0x3e0f723d	0.14008422
89	0xbc536167	-0.0129016405
90	0x3da870a2	0.08224608
91	0xbce63ec5	-0.028106103
92	0xbd584d59	-0.05280814
93	0xbd20ee59	-0.039289806
94	0x3dec86f4	0.11549178
95	0xbe29c5fa	-0.16579428
96	0x3e002090	0.12512422
97	0x3e09c6a4	0.13454682
98	0x3d9c7385	0.07639221
99	0x3e252fef	0.16131566
100	0xbd248d77	-0.040173974
101	0x3dd7c24c	0.10535106
102	0x3be7c3a6	0.0070728837
103	0xbd820afa	-0.0634975
104	0x3da6475b	0.08119079
105	0xbe1ae7ce	-0.15127489
106	0x3d8dd673	0.069256686
107	0x3cdaf91a	0.026730109
108	0x3cf5673b	0.02995645
109	0x3e29fe7a	0.16600981
110	0x3e00ab52	0.12565354
111	0xbd9cf6d6	-0.07664268
112	0x3dc63e2b	0.09679826
113	0xbcf83eba	-0.030303348
114	0xbd02acc2	-0.031903036
115	0x3d61194b	0.054955762
116	0xbd40907a	-0.047012784
117	0x3d239037	0.039932456
118	0x3dc374ee	0.09543787
119	0xbd305755	-0.043052036
120	0x3d26dae3	0.04073609
121	0xbd4e97c3	-0.0504377
122	0xbdcecda3	-0.10097816
123	0xbdf88c87	-0.121361785
124	0x3dd1fb50	0.10253012
125	0x3dbffd08	0.09374434
126	0xbc553513	-0.013013142
127	0x3de12d9a	0.10995026

weight f4 [26, 128, 1, 1]
0	0xbd9ccf07	-0.07656675
1	0xbd9bc37d	-0.07605646
2	0xb9e4816b	-0.00043583973
3	0xbd1a1141	-0.03761411
4	0xbd270763	-0.04077853
5	0x3cbe825f	0.023255525
6	0x3d92a02b	0.07159456
7	0x3cde2f47	0.027122153
8	0x3d5481a8	0.051881462
9	0x3dad509e	0.08462642
10	0xbc3c521d	-0.011494187
11	0xbd16f5dc	-0.036855564
12	0xbca840c5	-0.020538697
13	0x3d846038	0.06463665
14	0x3d9a3f11	0.0753156
15	0xbc8d98a8	-0.017284706
16	0xbd8d1449	-0.06888635
17	0x3d65ff4b	0.05615167
18	0x3c5cd6be	0.013478933
19	0xbdb49f42	-0.088194385
20	0x3b9b0c2f	0.004731677
21	0xbd81007c	-0.062989205
22	0x3dbf6cd0	0.09346926
23	0xbc9eab0c	-0.01936867
24	0xbd4a8cec	-0.0494508
25	0xbb0f2a73	-0.002184537
26	0x3dab7176	0.0837125
27	0x3cbc74b9	0.023004876
28	0x3d9dc05d	0.07702706
29	0xbcc10593	-0.023562228
30	0xbc7d0e76	-0.015445342
31	0xbbd13dd7	-0.0063855457
32	0x3d896232	0.067081824
33	0x3d38be18	0.045103163
34	0x3d323e83	0.043516647
35	0x3da419a0	0.080127
36	0x3d99919b	0.07498475
37	0xbca9a6e3	-0.02070946
38	0x3b0c2fc2	0.002139077
39	0x3d430ec1	0.047621492
40	0xbd8b69e9	-0.0680731
41	0x3d944d83	0.07241347
42	0x3d13db88	0.036098033
43	0xbd1e0258	-0.038576454
44	0x3e095c56	0.1341413
45	0xbda54eac	-0.08071646
46	0x3d88bbcc	0.066764444
47	0xbd936828	-0.071976006
48	0xbda596f4	-0.08085433
49	0x3bff50cb	0.0077916137
50	0xbc94c0a5	-0.018158266
51	0xbd182a53	-0.03714974
52	0x3c6f9c4e	0.014624668
53	0x3d74bc0e	0.059749655
54	0x3be3ed2c	0.0069557633
55	0x3cb04913	0.02151922
56	0xbc17383e	-0.009229718
57	0x3b926633	0.0044677495
58	0x3d68faa7	0.056879666
59	0xbd25e121	-0.040497903
60	0xbd006950	-0.031350434
61	0x3d8518a1	0.06498838
62	0x3d1ef8cc	0.03881149
63	0x3d3ccc6d	0.046093393
64	0x3d7e1bfb	0.062038403
65	0xbd9ed879	-0.07756133
66	0x3be2836d	0.00691264
67	0xbdb8dff1	-0.090270884
68	0xbb65e07c	-0.003507643
69	0xbc81da25	-0.01585109
70	0xbd23aa4f	-0.03995734
71	0x3ba4036c	0.0050052907
72	0x3e379919	0.17929496
73	0xbdbe6807	-0.092971854
74	0x3d926c44	0.07149556
75	0x3d73d5e2	0.059530146
76	0xbc61ceb5	-0.013782193
77	0xbb8914ce	-0.0041833883
78	0x3c48cfcd	0.012256575
79	0xbcce6aa6	-0.025197338
80	0x3d58f91d	0.052971948
81	0x3ced55c4	0.02897156
82	0x3ce1ef55	0.027579943
83	0x3d5a9f36	0.05337449
84	0x3d60a17e	0.05484151
85	0x3c69fd95	0.01428165
86	0xbd7cde42	-0.0617354
87	0xbd87d95d	-0.06633256
88	0x3c014e81	0.007892252
89	0x3c129bc9	0.008948275
90	0x3d9e7d62	0.077387586
91	0x3d6bb0b4	0.057541564
92	0x3d899107	0.06717115
93	0x3cf304b6	0.029665332
94	0xbdb76859	-0.089554496
95	0xbdacd44b	-0.08438929
96	0x3cb5a375	0.022172669
97	0xbd1f603f	-0.038910147
98	0x3d06f5b6	0.032949172
99	0x3d20d92b	0.039269608
100	0x3bf5a99c	0.0074970257
101	0x3c31e922	0.010858806
102	0xbd57bfe1	-0.052673224
103	0x3e1ea3b5	0.15492137
104	0x3ad1be1b	0.001600209
105	0x3d6670f3	0.05626006
106	0xbd9792d7	-0.07401054
107	0xbd9a3419	-0.07529468
108	0xbd6d0413	-0.057865214
109	0xbd077af2	-0.033076234
110	0xbc18b482	-0.00932038
111	0xbcf8ae14	-0.030356444
112	0x3d7a489b	0.0611044
113	0x3d1ea715	0.03873356
114	0xbdae209a	-0.08502312
115	0xb8db5cd2	-0.00010460023
116	0xbd3d58ab	-0.04622714
117	0xbd6578e7	-0.056023505
118	0xbd77467a	-0.060369946
119	0x3da7e5a0	0.08198094
120	0xbc0418b6	-0.008062532
121	0xbd990a54	-0.07472673
122	0x3da97e61	0.08276058
123	0x3db4e2b4	0.08832303
124	0xba697bea	-0.0008906709
125	0xbcea6071	-0.02861044
126	0x3dba1155	0.09085337
127	0x3d4429f8	0.047891587
128	0xbd952323	-0.072820924
129	0xbd90f1ed	-0.07077394
130	0x3d672bb3	0.05643816
131	0x3d953514	0.072855145
132	0xbdd14f68	-0.10220224
133	0xbe788a34	-0.2427147
134	0x3d939d76	0.07207768
135	0x3d30b391	0.043139998
136	0xbd4b0d42	-0.04957319
137	0x3ce4d849	0.027935164
138	0xbe05a00e	-0.13049337
139	0x3bb730f6	0.0055905534
140	0x3d2af989	0.04174188
141	0xbd295b12	-0.041346617
142	0x3ddbb6bf	0.107282154
143	0x3c560bd7	0.013064346
144	0xbdc6722c	-0.09689745
145	0x3ccea8a7	0.025226904
146	0x3e006414	0.12538177
147	0x3d6c99d9	0.057763908
148	0xbd953b57	-0.07286709
149	0xbe151a6e	-0.14560863
150	0x3ca6feb8	0.020385131
151	0x3cf943c0	0.030427814
152	0x3d80c541	0.06287623
153	0x3dee42e6	0.116338536
154	0xbcda7dce	-0.026671316
155	0x3d7e19f8	0.062036484
156	0xbd1f9ac4	-0.038965955
157	0x3cffe21a	0.031235743
158	0x3dc233a6	0.094825074
159	0x3c853ed9	0.01626532
160	0x3d952a65	0.07283477
161	0xbd700926	-0.058602475
162	0xbda49b7a	-0.08037467
163	0xbc8d1062	-0.017219726
164	0xbc6eb2d7	-0.014569006
165	0x3d1d9944	0.038476244
166	0xbc3be23e	-0.011467515
167	0x3df5d794	0.12004009
168	0xbd0df66f	-0.034658846
169	0xbd871a09	-0.06596763
170	0xbcc8bfaf	-0.024505464
171	0xbce8a5ef	-0.028399436
172	0x3d899d0e	0.06719409
173	0x3cbdde16	0.023177188
174	0x3cb49742	0.022044782
175	0x3ddb1717	0.106977634
176	0x3d1b8723	0.037970673
177	0x3cf86592	0.03032187
178	0xbd1d328f	-0.038378295
179	0xbda0bc53	-0.0784842
180	0x3d9277da	0.07151766
181	0xbd8b073a	-0.06788488
182	0x3c19d319	0.0093887085
183	0x3d561495	0.052265722
184	0x3df0b9cd	0.11754189
185	0x3e207679	0.15670194
186	0xbdaf32df	-0.08554625
187	0x3d6b990f	0.057519015
188	0x3c852701	0.01625395
189	0xbd927c12	-0.07152571
190	0x3e023961	0.12717201
191	0x3d5f1a37	0.05446836
192	0x3dee3214	0.116306454
193	0x3dda2d60	0.10653186
194	0x3d9abfff	0.075561516
195	0x3d634d86	0.055493854
196	0xbd49d551	-0.0492757
197	0x3de0a973	0.1096982
198	0x3dcb0541	0.099131115
199	0xbd9d2159	-0.07672376
200	0x3cff8d2c	0.031195246
201	0xbda18a49	-0.07887704
202	0x3d002904	0.031289116
203	0xbb1edff7	-0.002424238
204	0xbc242736	-0.010019114
205	0xbca4db53	-0.020124113
206	0xbdbdb5ff	-0.092632286
207	0xbc671280	-0.014103532
208	0xbdae88b9	-0.085221715
209	0x3d8eea1c	0.069782466
210	0xbd01648d	-0.031590033
211	0xbc3f21b1	-0.0116657475
212	0x3d2cfda2	0.04223407
213	0xbd7f0ad4	-0.062266186
214	0xbdb91e63	-0.09038999
215	0xbdaa792b	-0.08323892
216	0x39f91739	0.00047510283
217	0x3d549bd4	0.05190642
218	0xbbd88f41	-0.006608874
219	0x3cbfd3ed	0.023416484
220	0xbbc8409d	-0.006111218
221	0xbd8d236c	-0.06891522
222	0x3d4f72c8	0.050646573
223	0xbcf08d00	-0.029364109
224	0xbd2829dc	-0.041055545
225	0xbe6c4bb3	-0.23075752
226	0xbe0170ca	-0.12640682
227	0xbbf49de4	-0.007465111
228	0x3cbd3664	0.023097225
229	0x3da48d02	0.080347076
230	0xbd4c6bb6	-0.04990741
231	0x3e341e1c	0.17589611
232	0xbddf26d6	-0.10896079
233	0x3dbeb695	0.093121685
234	0xbd0a7fef	-0.033813413
235	0xbd542edd	-0.051802505
236	0x3d894211	0.06702054
237	0x3cf10502	0.029421333
238	0x3c4dae8d	0.012553823
239	0x3cfd6bcc	0.03093519
240	0xbcf98f5f	-0.030463872
241	0x3dd5ff3d	0.104490735
242	0x3bb66955	0.005566756
243	0xbdb50bab	-0.08840116
244	0x3c263c1a	0.010146165
245	0x3c60f339	0.013729864
246	0xbe04fc5f	-0.12986897
247	0x3e041791	0.12899615
248	0x3d7aa460	0.061191916
249	0xbd51abec	-0.051189348
250	0x3cc8a679	0.024493443
251	0xbc544ccd	-0.012957764
252	0x3d336e1f	0.04380619
253	0xbcd094ed	-0.025461638
254	0x3de86cd0	0.11348879
255	0x3c7e43fb	0.0155191375

bias f4 [26]
0	0x3d6e9fb8	0.05825779
1	0xbd7bf9c2	-0.061517484
2	0x3b612c7a	0.0034358785
3	0x3d5841d6	0.05279716
4	0xbda38fcd	-0.07986412
5	0xbd9e1a15	-0.077198185
6	0x3d7c1d02	0.0615511
7	0xbb3c8be0	-0.0028769895
8	0x3c73513a	0.014850909
9	0xbcbb8c6d	-0.022894109
10	0x3d4245f7	0.047430005
11	0xbd7c7a0d	-0.061639834
12	0x3d6cc7df	0.0578078
13	0x3d5c4a6d	0.053781915
14	0x3b2a8a60	0.002602242
15	0x3d362c06	0.044475578
16	0x3b66cbe1	0.0035216736
17	0xbc5831a0	-0.013195425
18	0x3d3bb2ed	0.045824934
19	0x3d3216d2	0.043478794
20	0x3d8c3107	0.06845289
21	0x3d77f09a	0.06053219
22	0x3d9349a2	0.07191779
23	0x3c14b815	0.009077092
24	0x3d7e071e	0.062018506
25	0xbd5b7333	-0.05357666

weight f4 [32, 26, 3, 3]
0	0x3c7a677e	0.0152834635
1	0xbd777269	-0.060411844
2	0x3d8c3ba8	0.06847316
3	0xbc5058aa	-0.012716452
4	0x3ccdd972	0.0251281
5	0xbd7916f5	-0.06081291
6	0xbda59dd6	-0.080867454
7	0x3c8b3170	0.016991347
8	0x3d125f40	0.03573537
9	0x3c594b86	0.013262635
10	0x3d8e45b2	0.06946887
11	0x3ae5b063	0.0017523881
12	0x3d4a1c1a	0.049343206
13	0xbcf6146f	-0.03003904
14	0x3d389a70	0.045069158
15	0xbd6cc952	-0.05780918
16	0x3dd56ba2	0.1042092
17	0xbd353b4d	-0.044246007
18	0xbd78ad35	-0.060712058
19	0x3c286563	0.010278079
20	0x3d277087	0.0408788
21	0x3c6415d1	0.013921217
22	0xbda60e81	-0.08108235
23	0x3d178b94	0.036998346
24	0xbd639633	-0.055563163
25	0x3c97f7f5	0.018550852
26	0xbd1634b3	-0.03667135
27	0xbd9be641	-0.07612277
28	0xbd3cd084	-0.046097293
29	0xbcef22fe	-0.02919149
30	0x3d551ea7	0.052031185
31	0xbc078142	-0.008270564
32	0x3ca0f20e	0.01964667
33	0xbca68832	-0.020328615
34	0xbcc34fcf	-0.023841767
35	0x3d26ec8c	0.040752932
36	0x3d4af614	0.049551085
37	0x39c9c71d	0.00038486058
38	0x3ce88ed6	0.028388422
39	0xbd17e866	-0.037086867
40	0x3c941bef	0.018079726
41	0x3d6172ce	0.055041127
42	0xbd43a9c3	-0.04776932
43	0xbc062222	-0.008186849
44	0xbd8c5871	-0.06852806
45	0xbd071516	-0.032979093
46	0x3cc1725b	0.0236141
47	0xbc60dc3a	-0.013724381
48	0x3d371753	0.044699978
49	0xbd5f582d	-0.05452745
50	0x3cf0ae32	0.029379938
51	0x3d0dbfc2	0.034606703
52	0xbd5bd0d0	-0.053665936
53	0x3d8471db	0.06467029
54	0xbd0cbfdd	-0.034362663
55	0x3d198619	0.0374814
56	0xbc295815	-0.010335942
57	0xbdd5101b	-0.104034625
58	0xbd65cad9	-0.056101654
59	0x3bad09d8	0.0052807145
60	0x3b95c81f	0.0045709754
61	0x3c09dfd5	0.008415182
62	0xbd4da2ad	-0.050203968
63	0x3d4491ef	0.047990736
64	0xbd0b618c	-0.034028575
65	0xbd4fdd39	-0.050748084
66	0x3c421248	0.011845179
67	0xbcb0234d	-0.021501208
68	0x3cdabd22	0.026701514
69	0x3d8bd337	0.068273954
70	0x3cbdd439	0.023172485
71	0xbc3824af	-0.011239215
72	0x3d039c35	0.032131393
73	0x3d0c801a	0.034301855
74	0xbd4d8f33	-0.050185394
75	0xbcf41c0d	-0.029798532
76	0x3ca66aac	0.020314537
77	0xbc3ee1ab	-0.011650483
78	0x3c8b33f7	0.016992552
79	0xbbeee408	-0.007290367
80	0x3c96a0d7	0.018387241
81	0x3b2b6e25	0.002615818
82	0xbd5d4f56	-0.05403074
83	0xbd12f0cd	-0.035874177
84	0x3da47e20	0.08031869
85	0x3d36459f	0.04449999
86	0x3d9e819b	0.07739564
87	0xbd9a53c0	-0.07535505
88	0x3c4c8790	0.0124834925
89	0x3c0ab799	0.008466625
90	0x3d2b0166	0.04174938
91	0xbd67861c	-0.05652438
92	0x3d689fb3	0.056792926
93	0xbcd1b82e	-0.025600519
94	0x3d2879b3	0.041131686
95	0x3cae298d	0.021260047
96	0xbd8b883b	-0.06813093
97	0xbc658e9f	-0.014011054
98	0x3cb8b01d	0.022544915
99	0xbd3f0cf3	-0.04664321
100	0x39de4ac8	0.00042398856
101	0xbd22efa8	-0.039779335
102	0xbd377512	-0.04478938
103	0xbcd6a0fa	-0.026199806
104	0xbd81ee8d	-0.06344328
105	0xbd6639f5	-0.056207616
106	0x3d17039d	0.03686868
107	0xbd6ab7e7	-0.05730429
108	0x3c95169a	0.018199254
109	0xbb9b945d	-0.004747911
110	0x3c8cd645	0.017192015
111	0x3db6f842	0.0893407
112	0x3b295b3b	0.002584173
113	0xbe05ec14	-0.13078338
114	0x3cb28542	0.021792058
115	0xbd1aaf75	-0.037764985
116	0x3d2524eb	0.04031841
117	0xbd81043d	-0.062996365
118	0x3d4fbca2	0.050717004
119	0x3d0230c2	0.03178478
120	0x3d5b04bc	0.053471312
121	0xbc71c644	-0.014756743
122	0xbcdf4588	-0.027254835
123	0x3cff29d7	0.03114788
124	0xbc1b7c23	-0.009490046
125	0xbd664a50	-0.056223214
126	0xbda8a80f	-0.0823518
127	0xbd4d2077	-0.05007979
128	0x3ceae8d1	0.028675469
129	0x3d83aca0	0.0642941
130	0x3d9d03f1	0.076667674
131	0xbd834038	-0.06408733
132	0xbd8e00f0	-0.069337726
133	0xbc52d26d	-0.012867552
134	0x3b9817a4	0.00464149
135	0xbda641db	-0.0811803
136	0xbd84146d	-0.064492084
137	0xbc10421b	-0.008804823
138	0x3dc8110f	0.09768879
139	0x3d470f76	0.04859873
140	0x3c97ea8e	0.018544462
141	0xbd5a7080	-0.053329945
142	0xbd3f55c0	-0.046712637
143	0xbd471749	-0.04860619
144	0x3d814548	0.063120425
145	0xbd04302a	-0.032272495
146	0xbd10418d	-0.035218764
147	0xbd52fb7b	-0.05150936
148	0xbd447f34	-0.047972873
149	0xbcab90b5	-0.020943025
150	0x3c74f084	0.0149499215
151	0x3d214fc2	0.039382704
152	0xbd5d6515	-0.054051477
153	0x3c853745	0.016261706
154	0xbd2adacf	-0.04171258
155	0xbcbf23bc	-0.02333247
156	0x3c8dd906	0.017315399
157	0xbcbfbf9f	-0.023406802
158	0xbd50a70d	-0.050940562
159	0xbd1ca85d	-0.0382465
160	0x3c6beab7	0.014399222
161	0x3c48c4d3	0.012253958
162	0xbc2ff2b5	-0.010739018
163	0xbd752124	-0.05984606
164	0xbcf15f91	-0.029464515
165	0xbbd97344	-0.006636055
166	0x3d99c252	0.07507767
167	0x3d1a989b	0.037743192
168	0xbca382ea	-0.019959886
169	0x3ba281a0	0.0049593
170	0xbcd8e9e2	-0.026478712
171	0xbd39885d	-0.04529606
172	0x3cd3ca02	0.02585316
173	0xbc59ea02	-0.013300421
174	0x3d2cd3b6	0.04219409
175	0xbd9f9a0a	-0.077930525
176	0xbd6b3593	-0.05742414
177	0xbca82237	-0.020524127
178	0xbc26de95	-0.010184904
179	0xbbd80d5c	-0.0065933894
180	0xbd3c8dfa	-0.046033837
181	0x3c365d11	0.011130587
182	0x3d30dbdc	0.043178424
183	0x3c972ef5	0.018455008
184	0x3da51d5b	0.0806224
185	0x3c1b82b5	0.009491612
186	0x3c882646	0.016619813
187	0xbd922ac3	-0.071370624
188	0xbc7f475a	-0.015580976
189	0x3bb8f88e	0.0056448644
190	0x3d00c253	0.031435322
191	0xbd682a0e	-0.05668073
192	0xbd8c8e65	-0.06863097
193	0x3d20e5d7	0.039281692
194	0x3af19e2e	0.0018433982
195	0xbd3b17c1	-0.04567695
196	0xbd522e57	-0.051313724
197	0xbd025bbb	-0.031825762
198	0x3bfa22aa	0.007633527
199	0x3d2f9cfc	0.04287432
200	0x3bf4a14f	0.0074655185
201	0x3c4e4610	0.012589946
202	0xbd1f436d	-0.03888266
203	0xbda0f2ea	-0.07858832
204	0x3db5b149	0.08871705
205	0xbd459867	-0.048241045
206	0xbc03e664	-0.008050535
207	0xbd70118f	-0.058610495
208	0xbd3b6d22	-0.045758374
209	0x3cedb5f8	0.029017434
210	0x3d2309c3	0.03980423
211	0xbccd74c3	-0.02508009
212	0x3cbe49a3	0.023228472
213	0x3c98cd5d	0.018652612
214	0xbc620b6c	-0.0137966685
215	0xbd3836ee	-0.04497426
216	0x3d45bb63	0.04827441
217	0xbcd9d655	-0.02659146
218	0x3ba5daf8	0.0050615035
219	0xbd1082eb	-0.035281103
220	0x3c1984e5	0.009370063
221	0xbc4d2f09	-0.012523421
222	0xbd3cdd3a	-0.046109416
223	0xbd8532fe	-0.065038666
224	0x3d991768	0.074751675
225	0x3c37fbb3	0.011229443
226	0x3d36bcc9	0.044613633
227	0xbd3e7f94	-0.046508387
228	0x3bbedd8f	0.0058247517
229	0xbccbd0e1	-0.024879875
230	0x3d862fbe	0.06552075
231	0xba8668ab	-0.0010254582
232	0x3d39e69c	0.045385942
233	0x3d34f22f	0.044176277
234	0xbc7dcbba	-0.015490467
235	0xbca15939	-0.019695865
236	0xbc96f7e0	-0.018428743
237	0xbbf91684	-0.007601561
238	0x3baae847	0.005215678
239	0x3d14120f	0.036150035
240	0x3d367c47	0.044552114
241	0xbb2ff0f5	-0.0026846502
242	0x3d88280f	0.066482656
243	0xbd2d4801	-0.042304996
244	0x3d5fe577	0.054662194
245	0x3c8ffb76	0.01757596
246	0xbced12b8	-0.02893959
247	0xbd4ae47e	-0.049534313
248	0x3d051a4d	0.032495786
249	0x3cf59880	0.029979944
250	0x3b5ae330	0.0033399574
251	0xbd033948	-0.03203705
252	0x3ce37855	0.02776734
253	0x3ba282a7	0.0049594226
254	0x3d9e90de	0.07742475
255	0xbce13d76	-0.027495127

bias f4 [32]
0	0x3d3968ee	0.045266084
1	0x3d463145	0.04838683
2	0x3ca281ff	0.019837378
3	0x3cc61b44	0.024182923
4	0xbd8e5e89	-0.06951625
5	0xbd4006bc	-0.046881422
6	0xbd8b4fc8	-0.068023264
7	0x3d077191	0.03306729
8	0x3d7cd9ae	0.061731033
9	0xbd20e597	-0.039281454
10	0xbcc41c05	-0.023939142
11	0xbca8979a	-0.020580102
12	0x3ca43861	0.020046415
13	0xbd50ffcd	-0.0510252
14	0xbd5eae3f	-0.054365393
15	0x3ce334c2	0.027735118
16	0x3aaa38d0	0.0012986902
17	0x3d0ab61b	0.033865076
18	0x3d35ff1d	0.044432748
19	0x3d33fe92	0.04394395
20	0xbb8d02d4	-0.0043033157
21	0xbce9f2a1	-0.028558077
22	0xbad46c02	-0.0016206505
23	0xbd2603c7	-0.040530946
24	0xbd6b30d1	-0.0574196
25	0xbd64e14f	-0.055878934
26	0x3d78e0c3	0.060761224
27	0x3c92dd7f	0.017927883
28	0x3d86eede	0.06588529
29	0x39d1837e	0.00039961556
30	0xbd4829ec	-0.048868105
31	0x3c67a655	0.014138778

weight f4 [128, 32, 1, 1]
0	0xbd68c790	-0.056830943
1	0x3d1fec79	0.039043877
2	0x3e3088c5	0.17239673
3	0xbe10017d	-0.14063068
4	0x3db762c3	0.08954384
5	0xbe5f5d03	-0.21812825
6	0x3db83526	0.08994512
7	0xbcac1bf0	-0.021009415
8	0x3e2cb78e	0.16866896
9	0x3c90faea	0.01769777
10	0xbd7b99f6	-0.061426125
11	0x3df25d10	0.118341565
12	0xbd3131ee	-0.043260507
13	0xbdc676a6	-0.09690599
14	0x3de110df	0.10989546
15	0xbbcbb805	-0.006217005
16	0xbd833e08	-0.06408316
17	0xbd87e27d	-0.06634996
18	0x3d4a26a4	0.049353257
19	0xbd0fdd40	-0.03512311
20	0x3a85dcd8	0.0010212911
21	0xbe0137b6	-0.12618908
22	0x3da35883	0.07975867
23	0xbe2cc534	-0.16872102
24	0xbdd9ba5e	-0.1063125
25	0x3cc6cb05	0.02426673
26	0xbe0bbc23	-0.13645987
27	0xbde25e63	-0.11053159
28	0x3d4dd28a	0.050249614
29	0x3d4422ae	0.047884636
30	0x3dc06fc6	0.09396319
31	0x3db349f5	0.087543406
32	0x3d437609	0.04771999
33	0xbd6db0bf	-0.058029886
34	0xbd609471	-0.054829065
35	0xbd947706	-0.072492644
36	0x3da32a2b	0.07967027
37	0xbdb6011c	-0.0888693
38	0xbd80d6bb	-0.062909566
39	0x3a9ee2e7	0.0012122066
40	0x3d268b1d	0.040660013
41	0x3cb81c61	0.02247447
42	0x3c10a991	0.00882949
43	0x3e30cefe	0.17266461
44	0xbe04e19d	-0.1297669
45	0x3c9bbafd	0.019010061
46	0x3b1a3c23	0.002353438
47	0x3dada0e0	0.0847795
48	0x3dc2c027	0.095093064
49	0x3daf9efa	0.08575244
50	0x3de79eb4	0.11309567
51	0xbdd814e8	-0.105508626
52	0x3a769be8	0.0009407387
53	0x3d9489b4	0.07252827
54	0xbda23fc8	-0.079223216
55	0x3dbde81f	0.09272789
56	0x3e26bf17	0.16283832
57	0xbcde2bc8	-0.027120486
58	0xbd85f256	-0.065403625
59	0x3da990c7	0.08279567
60	0xbe0d5b92	-0.13804463
61	0xbd2b3f07	-0.041808154
62	0x3e055360	0.13020086
63	0x3cd634a9	0.026148157
64	0xbe2eb841	-0.17062475
65	0xbddf858e	-0.109141454
66	0x3e127992	0.14304188
67	0xbdb71305	-0.089391746
68	0xbdba7343	-0.09104016
69	0xbc457bf9	-0.012053483
70	0x3e0b6441	0.13612463
71	0x3dd3eb22	0.103475824
72	0x3e17317f	0.14764975
73	0xbe20eb23	-0.15714698
74	0xbdd97e3f	-0.10619783
75	0xbdf5a3f9	-0.11994166
76	0x3e4fe667	0.20302735
77	0x3e1461df	0.1449046
78	0xbc9cc3c9	-0.019136326
79	0x3d9dfa53	0.07713761
80	0x3a38e779	0.0007053535
81	0xbd9edd97	-0.07757109
82	0xbd79e728	-0.061011463
83	0x3d99b693	0.075055264
84	0xbe16d5e6	-0.14730033
85	0x3d2da6a2	0.04239524
86	0x3e1ef020	0.15521288
87	0xbe082c22	-0.13298085
88	0x3dce85bf	0.10084104
89	0xbde1ccd3	-0.11025395
90	0x3e17e972	0.14835146
91	0xbddecdfb	-0.108791314
92	0x3e4d75cb	0.20064466
93	0x3d8423e2	0.064521566
94	0x3dcc3cc3	0.09972527
95	0x3d97ceb9	0.07412476
96	0xbe1e9af1	-0.15488793
97	0x3d963673	0.07334604
98	0x3e1ba837	0.15200888
99	0x3dc3d3c7	0.09561878
100	0xbd911b1d	-0.070852496
101	0x3daf9ed8	0.08575219
102	0xbcad86c8	-0.021182433
103	0x3deb127c	0.11478135
104	0xbc9e0835	-0.019291023
105	0xbe2be77e	-0.16787526
106	0xbd97eda8	-0.07418376
107	0x3e412c9f	0.18864678
108	0x3ddb9d32	0.10723342
109	0x3d5df7fa	0.054191567
110	0x3dc7ac0e	0.09749614
111	0x3d743438	0.059620112
112	0x3e316cff	0.17326735
113	0xbd13b28e	-0.036058955
114	0xbca913f6	-0.0206394
115	0x3e07e191	0.1326964
116	0xbe204455	-0.15651067
117	0x3e166797	0.14687954
118	0x3db81017	0.08987444
119	0x3dc9d186	0.098544165
120	0xbc83ef5f	-0.016105352
121	0x3e4813e4	0.19538838
122	0x3dd3f178	0.10348791
123	0xbda0fe51	-0.07861007
124	0x3e231b21	0.15928318
125	0xbdb10fa3	-0.086455606
126	0x3e0fe6e0	0.14052916
127	0x3d548d74	0.051892713
128	0x3d5f0c89	0.054455314
129	0xbd6e4c32	-0.058178134
130	0x3db67040	0.08908129
131	0xbe169d43	-0.14708428
132	0xbe410168	-0.18848193
133	0xbe17e4bd	-0.1483335
134	0xbe334c74	-0.17509633
135	0xbda645ae	-0.08118759
136	0xbd3233ba	-0.04350636
137	0x3dfccbc7	0.12343555
138	0xbc68d10e	-0.014209999
139	0xbe105f27	-0.14098798
140	0x3e81e7af	0.25372073
141	0x3d8c2723	0.06843402
142	0xbd8f3cbb	-0.06994005
143	0x3d684877	0.056709733
144	0x3e0d3e6a	0.1379334
145	0xbe32c964	-0.17459637
146	0x3e2e6e44	0.1703425
147	0x3d732f04	0.05937101
148	0xbe69387d	-0.22775455
149	0xbe1bd021	-0.15216114
150	0xbde5c01f	-0.11218285
151	0xbe1dc723	-0.15407996
152	0x3e4888a4	0.19583374
153	0xbe18c2ea	-0.14918104
154	0xbd25fb02	-0.040522583
155	0xb872ce78	-5.7889585e-05
156	0xbe5375c7	-0.20650397
157	0x3ded96ea	0.1160105
158	0xbe026756	-0.12734732
159	0xbdac86e5	-0.084241666
160	0x3c6a2e56	0.014293274
161	0x3c2e015d	0.010620442
162	0xbe4df248	-0.20111954
163	0x3e10be5b	0.14135115
164	0x3d0856d7	0.033285942
165	0xbdb77301	-0.08957482
166	0x3d3d57b6	0.046226226
167	0xbe383a3f	-0.17990969
168	0x3db56c94	0.088586
169	0xbe632ecb	-0.22185819
170	0xbe301091	-0.1719382
171	0x3d38fdc7	0.045163896
172	0x3e0c7b33	0.13718872
173	0xbde39841	-0.111130245
174	0xbdf67faa	-0.12036069
175	0xbe12851f	-0.14308594
176	0x3e5fae6a	0.21843877
177	0x3cf0a683	0.029376274
178	0xbdd18c0e	-0.102317914
179	0xbdad66a0	-0.0846684
180	0xbdfebb8c	-0.124381155
181	0xbd30bc91	-0.04314858
182	0x3e19c753	0.15017442
183	0x3e1f40f1	0.15552117
184	0xbd2ec832	-0.04267139
185	0xbbcdb270	-0.006277375
186	0x3ded1e9e	0.115781054
187	0xbdcce50c	-0.10004625
188	0xbd9cae6e	-0.07650457
189	0xbd23bafb	-0.03997324
190	0x3e074ba3	0.13212447
191	0x3c9062eb	0.017625293
192	0xbdd9e3b0	-0.10639131
193	0x3cc77c72	0.024351332
194	0x3c95a70c	0.01826813
195	0x3e304cec	0.17216843
196	0xbe1fcc11	-0.15605189
197	0x3b894d66	0.004190135
198	0x3d115759	0.03548369
199	0xbdd7edf4	-0.10543433
200	0x3e2017b5	0.15634044
201	0x3da40d3a	0.08010335
202	0xbd3cf52d	-0.046132255
203	0xbe2abf8e	-0.16674635
204	0x3d2e1a38	0.042505473
205	0xbdcc208c	-0.09967145
206	0x3c536c29	0.012904205
207	0x3da5f060	0.081024885
208	0xbdaddd6b	-0.08489498
209	0x3d94d714	0.072675854
210	0x3e14b065	0.14520414
211	0xbe129a09	-0.14316572
212	0xbd4dd123	-0.050248276
213	0x3e36c258	0.17847574
214	0x3dd0d72f	0.10197293
215	0xbc4970ad	-0.01229493
216	0xbe199daf	-0.15001558
217	0x3ddc5991	0.10759271
218	0xbcc3a5dc	-0.023882799
219	0x3e11aeee	0.14226887
220	0x3daf4ebb	0.085599385
221	0xbd9024d3	-0.07038274
222	0xbe052196	-0.13001093
223	0xbdcb6f07	-0.09933286
224	0x3dbb8013	0.091552876
225	0x3d372af0	0.044718683
226	0x3d1354cd	0.035969544
227	0xbe359c43	-0.1773539
228	0xbdd3872f	-0.103285186
229	0xbd9b7746	-0.07591109
230	0xbd07d79e	-0.033164613
231	0xbe166a13	-0.14688902
232	0x3e0d0bdc	0.13774055
233	0x3ddae959	0.10689039
234	0xbc043e88	-0.008071549
235	0xbe0b8886	-0.13626298
236	0x3d499420	0.04921353
237	0x3aee4aed	0.0018180289
238	0x3d8a2102	0.06744577
239	0xbcb64004	-0.022247322
240	0x3ddbffb7	0.10742133
241	0x3deb6b83	0.114951156
242	0xbda3def8	-0.08001512
243	0xbc76e0a2	-0.015068205
244	0x3db9225d	0.090397574
245	0x3d1da41b	0.03848658
246	0x3e265edc	0.16247123
247	0xbd6076aa	-0.054800667
248	0xbd90d61c	-0.07072088
249	0xbe3823b8	-0.17982376
250	0xbbe6135b	-0.0070213503
251	0x3aaa4401	0.0012990237
252	0x3d1aa56b	0.03775541
253	0x3c8bac34	0.017049886
254	0x3d792f1c	0.060835943
255	0xbd30e59b	-0.04318772

bias f4 [128]
0	0x3c66a5a0	0.014077574
1	0xbe2484c4	-0.16066271
2	0x3cf34c39	0.029699432
3	0xbdc6e209	-0.097110815
4	0xbbe09ef1	-0.006854885
5	0xbdbfce5e	-0.09365533
6	0xbe255025	-0.16143854
7	0x3d561236	0.05226346
8	0x3ddbe41a	0.10736866
9	0x3e255ae2	0.1614795
10	0xbc8996be	-0.016795512
11	0x3db7a6a9	0.08967335
12	0x3dc92b19	0.09822673
13	0xbd10469a	-0.03522358
14	0xbd59aeb4	-0.053145126
15	0xbdc07d95	-0.09398953
16	0xbe332c85	-0.17497452
17	0x3d9abadb	0.07555171
18	0x3c820e7c	0.015876047
19	0x3e265e8f	0.16247009
20	0xbe156ce4	-0.1459232
21	0x3d87e246	0.06634955
22	0xbd107bd4	-0.03527434
23	0xbdef7085	-0.11691383
24	0x3c860376	0.016359072
25	0xbd55e032	-0.052215762
26	0xbdc3b10e	-0.09555255
27	0x3de11a33	0.10991325
28	0xbc35a19f	-0.011085897
29	0xbdcfc793	-0.10145488
30	0x3de5f9c8	0.112292826
31	0x3dc90aa8	0.09816486
32	0xbd181ab4	-0.03713484
33	0xbd7671ef	-0.06016725
34	0xbdc8b1a1	-0.09799505
35	0x3dd9ba36	0.1063122
36	0x3dfed294	0.12442508
37	0x3db539c0	0.088489056
38	0x3e20d86c	0.15707558
39	0xbca8994b	-0.020580908
40	0x3d2f73fa	0.042835213
41	0x3e0dd596	0.13851008
42	0x3e1c5c4d	0.15269585
43	0x3d9d1940	0.07670832
44	0xba904b9e	-0.0011008864
45	0xbe06a7d1	-0.13149954
46	0x3d8e44ce	0.06946717
47	0xbd48c561	-0.04901636
48	0x3e0c29b3	0.13687782
49	0x3dc88b78	0.097922266
50	0xbdcc5de9	-0.099788494
51	0x3e177c5a	0.1479353
52	0x3d0b54cf	0.034016427
53	0x3dd3db95	0.10344616
54	0xbdcd52ee	-0.10025583
55	0x3b94d7b6	0.0045423163
56	0x3e186120	0.148808
57	0xbcc65352	-0.024209652
58	0xbdecc472	-0.115609065
59	0x3e1f9e09	0.1558763
60	0x3d7ac3c4	0.061221853
61	0xbbd6027c	-0.006531058
62	0x3e27c847	0.16384993
63	0x3e3e58c6	0.18588552
64	0x3c196465	0.009362315
65	0xbd6a7235	-0.057237823
66	0x3e26b8bd	0.1628141
67	0x3db33c1a	0.08751698
68	0xbdc2bdd2	-0.095088616
69	0x3db519e8	0.08842832
70	0xbe42f269	-0.19037785
71	0x3dfd8377	0.123785906
72	0xbe14dd0c	-0.14537448
73	0xbd785e59	-0.060636852
74	0xbe091016	-0.13385043
75	0xbd968c3a	-0.07350965
76	0xbe0f3945	-0.1398669
77	0x3d14549f	0.036213513
78	0xbde13b4f	-0.1099764
79	0x3c652f9f	0.013988405
80	0xbd7be0cd	-0.061493684
81	0xbdee312b	-0.11630472
82	0xbc9ebd33	-0.019377327
83	0x3a96ec22	0.0011514465
84	0xbe2e7970	-0.17038512
85	0x3e07328c	0.13202876
86	0xbc1566ee	-0.009118779
87	0x3db08ac8	0.086202204
88	0x3d9b9254	0.07596269
89	0x3da752f3	0.08170118
90	0x3e10612c	0.14099568
91	0x3d95874b	0.07301196
92	0x3de602c4	0.11230996
93	0x3d978fdb	0.07400485
94	0x3df1f9eb	0.11815246
95	0x3c242c2d	0.010020298
96	0x3d75decb	0.060026925
97	0xbda6fed0	-0.081540704
98	0x3d01d67a	0.03169868
99	0x3e2cdee6	0.16881904
100	0x3d5c486a	0.053779997
101	0xbcba68c0	-0.022755027
102	0xbbc4483f	-0.0059900577
103	0x3de8184a	0.11332758
104	0x3dc4c00a	0.09606941
105	0xbdd1b574	-0.102396876
106	0xbe13074c	-0.14358252
107	0x3e07cbf6	0.13261399
108	0xbc3a8200	-0.0113835335
109	0x3db04c87	0.086083464
110	0xbdc15971	-0.09440888
111	0xbe0594cb	-0.13045041
112	0xbdcd45b7	-0.10023063
113	0x3e0aa99f	0.13541268
114	0xbd41fe13	-0.047361445
115	0x3b4a3b9b	0.0030858282
116	0xbe1b6f01	-0.15179063
117	0xbddfab91	-0.109213956
118	0xbdc57ec6	-0.09643321
119	0x3d251d58	0.040311188
120	0xbcd24b23	-0.025670594
121	0xbce1992d	-0.02753886
122	0x3cf58ed6	0.029975336
123	0x3de1b3d6	0.11020629
124	0x3dadbda8	0.0848344
125	0xbe046d5a	-0.1293234
126	0xbd751a3c	-0.059839472
127	0x3dd42c9e	0.103600726

weight f4 [26, 128, 1, 1]
0	0x3cd729ed	0.026265109
1	0x3d88f2ad	0.06686912
2	0xbdaf11d9	-0.08548326
3	0x3cd90673	0.026492333
4	0x3b5a334d	0.0033294738
5	0xbd0b8c64	-0.034069434
6	0x3c98fe00	0.018675804
7	0x3da2ed69	0.07955439
8	0x3c77db99	0.01512804
9	0x3d0f44bc	0.03497766
10	0xbde49d39	-0.111628
11	0xbdd4db23	-0.103933595
12	0xbb648e6e	-0.0034874934
13	0xbcbeb90c	-0.023281597
14	0xbd4ece53	-0.050489735
15	0x3d89c2cc	0.06726608
16	0xbcc0c3a2	-0.023530785
17	0xbd8a84d2	-0.06763615
18	0x3cdc97fc	0.02692794
19	0x3b6b656d	0.0035918609
20	0xbcf95870	-0.030437678
21	0xbd577a5d	-0.05260693
22	0x3c28d27d	0.010304091
23	0xbb50f9f1	-0.0031887258
24	0xbd5752c5	-0.05256917
25	0xbb863f92	-0.0040969336
26	0x3cb65a6f	0.022259919
27	0xbd3e45a0	-0.04645312
28	0xbd3b1eb1	-0.045683566
29	0xbc2a7a45	-0.010405128
30	0x3cc9ba37	0.024624927
31	0x3cb1b999	0.021694945
32	0x3d984a19	0.07436008
33	0x3d837793	0.06419291
34	0xbd678671	-0.056524698
35	0xbe63a34d	-0.22230263
36	0x3ceaeed8	0.028678343
37	0x3d27c696	0.04096087
38	0xbbb87d51	-0.0056301733
39	0x3d744166	0.05963268
40	0xbd9e9ec8	-0.07745129
41	0xbc060a27	-0.008181131
42	0xbd0af93b	-0.03392909
43	0x3d4207a7	0.04737058
44	0x3d1c3a77	0.038141694
45	0x3e06e3b1	0.13172795
46	0xbc12df63	-0.008964392
47	0x3cdd9db3	0.027052736
48	0x3d9d8705	0.076917686
49	0xbdf984bf	-0.121835224
50	0x3d9eb78e	0.07749854
51	0x3da2c5e9	0.079479046
52	0xbd8b0d72	-0.06789674
53	0x3a32da66	0.0006822705
54	0xbdb8e1db	-0.090274535
55	0x3c9f5d7c	0.019453757
56	0xbd273f22	-0.040831693
57	0x3db49272	0.08816995
58	0xbd7f2155	-0.062287647
59	0x3c7a39c8	0.015272565
60	0xbd14e741	-0.036353353
61	0xbce59c93	-0.028028762
62	0x3d8a5b31	0.06755675
63	0xbdc48991	-0.09596551
64	0xbce3fbd4	-0.027830042
65	0x3a6a4402	0.00089365256
66	0xbd3df62e	-0.046377353
67	0xbb1ff4c6	-0.002440737
68	0xbbebbd4b	-0.0071941963
69	0xbc85a089	-0.0163119
70	0xbe2bc105	-0.1677285
71	0x3cd809b7	0.02637182
72	0xbe489f6f	-0.19592069
73	0x3d465502	0.048420914
74	0x3d765995	0.060144026
75	0x3dee3430	0.11631048
76	0xbd0a223b	-0.03372405
77	0xbd9bb8a1	-0.076035745
78	0xbe151eb3	-0.14562492
79	0x3b86bb84	0.004111709
80	0xbd8059b4	-0.062671095
81	0xbdb83ecd	-0.08996353
82	0x3c533e63	0.012893292
83	0xbdac40d6	-0.08410804
84	0xbda734c2	-0.0816436
85	0x3d5c5d12	0.053799696
86	0xbde7032d	-0.112799026
87	0x3ccf7271	0.025323125
88	0x3d8e9e6b	0.069638096
89	0xbb9cfeed	-0.0047911317
90	0xbd536c71	-0.05161709
91	0x3e0c4b30	0.13700557
92	0x3cc2cccf	0.023779301
93	0xbd146c0a	-0.036235847
94	0x3c2edd42	0.010672869
95	0xbc87b621	-0.016566338
96	0x3d517d13	0.05114467
97	0xbdbe842b	-0.09302553
98	0xbbc34bfb	-0.0059599853
99	0x3c9cbfa5	0.019134352
100	0xbd8244a0	-0.063607454
101	0x3c9e709d	0.019340808
102	0xb9926db1	-0.00027929017
103	0xbd945f72	-0.07244767
104	0x3da57ef4	0.08080855
105	0xbd7a90be	-0.061173193
106	0x3d720cb8	0.05909416
107	0xbd441762	-0.047873862
108	0x3cdda555	0.027056376
109	0xbc4a13f3	-0.012333858
110	0xbddb57ae	-0.10710083
111	0x3db59654	0.088665634
112	0x3d282d35	0.041058738
113	0x3c352596	0.0110563245
114	0x3a12d2f8	0.0005600895
115	0x3dbf42bc	0.093389004
116	0xbd944384	-0.0723944
117	0xbd8f2fa1	-0.06991506
118	0xbd0109e8	-0.031503588
119	0xbde4fd7e	-0.11181162
120	0x3b8808e8	0.0041514523
121	0xbc17ef2c	-0.009273332
122	0x3dc3e12a	0.09564431
123	0x3c7d5bc4	0.015463773
124	0xbdbba86d	-0.09162984
125	0xbc84e0cb	-0.01622047
126	0x3d8b9012	0.068145886
127	0xbe171660	-0.14754629
128	0x3d60883f	0.054817434
129	0x3a913714	0.0011079037
130	0x3d2894c5	0.041157503
131	0xbd565b20	-0.052332997
132	0xbc2dc774	-0.010606635
133	0xbdcff4d0	-0.10154116
134	0x3d7a92ce	0.06117516
135	0xbc083240	-0.008312762
136	0x3ba4002c	0.0050049033
137	0x3d4f4bf4	0.050609544
138	0xbd0f3916	-0.03496655
139	0xbc202a61	-0.009775729
140	0x3cf76312	0.030198608
141	0x3d96dd6c	0.073664516
142	0x3d07cabf	0.033152338
143	0x3c388900	0.011263132
144	0xbda2f3a0	-0.07956624
145	0xbd313261	-0.043260936
146	0x3c315b10	0.010824934
147	0x3d82a8d6	0.06379859
148	0xbc57cbed	-0.013171178
149	0x3d94b955	0.07261912
150	0xbd84ef8a	-0.06491001
151	0x3db497a7	0.08817988
152	0xbde776a0	-0.11301923
153	0xbd7396bd	-0.059469927
154	0x3e261efe	0.1622276
155	0x3d988cb7	0.07448714
156	0x3d93e079	0.07220549
157	0x3c350e19	0.011050724
158	0x3c814e50	0.015784413
159	0x3cbbc43e	0.022920724
160	0x3d93fb10	0.07225621
161	0x3d83f6a9	0.06443531
162	0x3d2e98ef	0.042626318
163	0x3d8b233a	0.06793828
164	0x3d3fc941	0.04682279
165	0x3cc12d77	0.02358125
166	0xbce13d7c	-0.027495138
167	0x3d8995de	0.06718038
168	0xbda20d46	-0.07912688
169	0x3d792e8d	0.06083541
170	0xbc85d38d	-0.016336227
171	0x3d2e1f4e	0.042510323
172	0xbdc4ef0e	-0.096159086
173	0xbe0dd1af	-0.13849519
174	0x3d6f3c13	0.0584069
175	0x3e0f78e4	0.1401096
176	0xbbc3c6eb	-0.0059746406
177	0x3d4897a0	0.048972726
178	0x3cdccaa3	0.026952093
179	0x3c8006fe	0.015628334
180	0xbc2d47c3	-0.010576191
181	0x3d846e01	0.06466294
182	0x3d2c0d1c	0.04200469
183	0x3c503ed0	0.012710288
184	0xbd7df3b8	-0.062000006
185	0xbda3bb8c	-0.07994756
186	0x3d802b4e	0.0625826
187	0xbd7add58	-0.061246246
188	0x3d9fb67c	0.07798478
189	0x3d9e6725	0.07734517
190	0xbd946322	-0.072454706
191	0xbc1e285f	-0.00965318
192	0x3d4eb3a2	0.05046428
193	0x3d4fbefa	0.05071924
194	0xbd926b75	-0.07149402
195	0x3d92cf7d	0.071684815
196	0xbcb3e0d1	-0.021957787
197	0x3d6c7310	0.05772692
198	0xbdaf7c2b	-0.08568605
199	0x3d5f02d7	0.054446068
200	0x3e08aac3	0.1334639
201	0x3be496c7	0.006975982
202	0x3c861b33	0.016370391
203	0x3d19ee84	0.03758098
204	0xbcf618e3	-0.030041164
205	0x3ceb3c9f	0.02871543
206	0x3ca9eafa	0.020741928
207	0x3a3e7ade	0.00072662334
208	0xbd35e0d4	-0.044403866
209	0xbbd52a3c	-0.006505279
210	0x3de7e97f	0.11323833
211	0x3ccf04a1	0.025270762
212	0xbcfa7307	-0.030572427
213	0x3c8921fb	0.016739836
214	0xbb045ed2	-0.002019812
215	0xbd971b02	-0.07378198
216	0x3d382719	0.04495916
217	0x3d6e9999	0.05825195
218	0xbd898c35	-0.067161955
219	0x3d87e318	0.066351116
220	0x3d890331	0.06690062
221	0x3d829d71	0.06377686
222	0x3d8e269f	0.0694096
223	0xbd94914b	-0.07254275
224	0xbd495ccd	-0.049160767
225	0x3d6b7480	0.05748415
226	0x3d5fdec9	0.054655824
227	0xbd5a3c2e	-0.053280048
228	0xbc3b926f	-0.011448487
229	0xbddb8b1a	-0.10719891
230	0x3cf73af9	0.030179488
231	0xbd913bb2	-0.07091464
232	0x3d902379	0.07038016
233	0x3de96c27	0.113975815
234	0x3d5e3f6f	0.054259714
235	0x3d1a25a0	0.03763354
236	0x3b6024b7	0.0034201571
237	0xbbe0b16d	-0.0068570883
238	0xbd8411ab	-0.064486824
239	0x3daf1758	0.08549374
240	0x3db6186e	0.08891378
241	0xbce490f8	-0.027901158
242	0xbd38fd87	-0.045163658
243	0x3d09bca1	0.033627156
244	0xbd40b2de	-0.04704558
245	0x3daabda6	0.08336954
246	0xbda1e088	-0.07904154
247	0xbdbec2fd	-0.09314535
248	0x3d9bed78	0.07613653
249	0x3c11cd18	0.008898996
250	0x3d910099	0.07080192
251	0x3d9f1b1a	0.07768841
252	0xbcc98134	-0.024597742
253	0xbc8e225f	-0.017350374
254	0x3b104818	0.0022015627
255	0xbda0c5f7	-0.07850259
