hw3/convnet-based/model_trained/net_F16B2E2_epoch_15.pth (torch, 111721 bytes, 20 tensors)

weight f4 [16, 3, 3, 3]
-0.13629697 0.010920893 -0.023859905 -0.03252309 0.16211253 0.16605613 0.08933503 0.0124993585
0.11406704 -0.079687014 -0.07285171 0.03604292 -0.15402943 0.047282398 0.09698135 0.17684421
0.15790181 -0.09008677 0.16085985 0.15171221 0.15326434 -0.109079376 -0.03006467 -0.08921666
0.1510674 0.16395316 0.13654868 -0.005077641 -0.09153906 -0.046846073 -0.049467713 0.05402748
0.03322829 0.20509078 -0.030137455 0.19558649 0.14323413 0.09535822 0.04176457 -0.056319136
-0.16074565 -0.027665567 0.09722588 0.16839284 -0.17348179 -0.17790225 0.002824144 -0.10286207
-0.06523138 -0.014324875 0.19285259 -0.14892364 -0.08866293 0.15696716 0.10562875 0.1715712
-0.18278758 0.09451904 0.20394087 0.019719824 0.082506 -0.18407795 -0.05519157 -0.12572011
0.13905747 0.1674779 0.12316301 -0.13590427 -0.04106252 0.055431977 -0.051774427 -0.061809562
-0.1610819 -0.16617286 -0.08781358 0.19124123 -0.18017176 -0.11786694 -0.008072683 -0.12918034
0.10079572 -0.15341125 0.08666154 0.14575744 0.1817384 -0.14113902 0.0800118 0.15928206
0.16070472 0.15611838 -0.16060436 -0.13890593 0.122084804 0.21081223 0.22115864 0.1363088
0.113833256 0.15427724 0.08967986 0.07798878 -0.014937525 -0.13928722 -0.038193863 -0.03913423
0.08368907 0.04273293 -0.17015189 -0.1986758 -0.1660791 0.08401579 0.12963417 -0.02105321
-0.032137178 0.1462105 -0.14660442 -0.09637273 -0.07038768 0.0427046 0.09637717 -0.20637599
-0.11443353 0.1525428 0.21618085 0.09710603 0.13756455 -0.12023161 -0.13575366 0.20823973
0.092826925 0.14751315 -0.042737253 0.110049784 -0.19969034 -0.12754433 0.030277526 0.12475169
-0.0956747 0.07504106 0.18257396 -0.1836876 0.05309647 0.122850455 -0.1417023 0.14103647
-0.18819998 -0.17838389 0.04062866 -0.08370603 -0.19822192 -0.029707057 -0.04748103 -0.07447684
0.21886452 -0.06610484 -0.09115996 0.087310866 -0.015236915 -0.16991755 -0.023409724 0.06855824
-0.044832405 0.21063608 0.09389106 -0.069535986 0.035536077 0.124383606 -0.018835273 -0.15901248
0.061546896 -0.053388063 0.15294978 0.05537631 -0.03855134 0.17279065 0.10512191 0.16541877
0.07909424 0.045948353 0.052308626 -0.105955 0.039022703 -0.16125031 -0.14992666 -0.12528956
0.1772168 0.17970559 -0.06740362 0.1515857 0.18292405 0.20354463 -0.13720317 -0.034068525
0.06870402 0.1432631 0.15209351 0.07757104 -0.19870675 0.0254546 -0.13479866 0.07192507
0.01662158 0.1215862 -0.017360255 0.052900784 0.16180073 0.08986691 -0.20475425 -0.14117357
0.057208348 -0.16625205 -0.12003922 0.13799943 -0.18428677 -0.014409715 -0.1757423 -0.05037262
0.14374752 -0.15717152 -0.048989777 0.031519607 -0.14599302 0.12671174 -0.090761594 0.11181026
-0.1533346 0.13419105 0.13412267 0.028748183 -0.05218739 0.0030636736 -0.18430099 -0.056225285
-0.14444824 -0.08658605 -0.19530144 0.15307744 0.032080162 -0.08723081 -0.17474848 -0.07504658
0.025402315 -0.07533463 0.08351464 -0.11968965 -0.019911787 0.12904537 -0.10938085 -0.020338757
-0.105366275 0.20595787 -0.12966289 -0.05367368 0.17974466 0.19726008 0.027816333 0.020915113
00000000: 6f91 0bbe 8ced 323c d975 c3bc ee36 05bd
00000010: d400 263e 9e0a 2a3e 49f5 b63d 1cca 4c3c
00000020: fb9b e93d f232 a3bd 4733 95bd bea1 133d
00000030: e4b9 1dbe 30ab 413d 289e c63d a616 353e
00000040: 03b1 213e 6a7f b8bd 72b8 243e 725a 1b3e
00000050: 54f1 1c3e 0265 dfbd 2f4a f6bc 39b7 b6bd
00000060: 6ab1 1a3e 56e3 273e 6bd3 0b3e 5762 a6bb
00000070: d578 bbbd abe1 3fbd a89e 4abd eb4b 5d3d
00000080: 631a 083d 5103 523e d3e2 f6bc d347 483e
00000090: f8ab 123e 2c4b c33d 5311 2b3d e5ae 66bd
000000a0: 829a 24be e6a2 e2bc 5d1e c73d 2c6f 2c3e
000000b0: 36a5 31be 022c 36be 4615 393b 59a9 d2bd
000000c0: 0898 85bd e1b2 6abc 267b 453e 707f 18be
000000d0: e994 b5bd 00bc 203e e353 d83d 5cb0 2f3e
000000e0: ab2c 3bbe 3393 c13d e0d5 503e 788b a13c
000000f0: e8f8 a83d ee7e 3cbe 8e10 62bd c6bc 00be
00000100: 1565 0e3e 547f 2b3e e33c fc3d 7d2a 0bbe
00000110: 2c31 28bd a40c 633d 6c11 54bd 062c 7dbd
00000120: a7f2 24be 3829 2abe 9bd7 b3bd bed4 433e
00000130: f27e 38be 3964 f1bd 4943 04bc da47 04be
00000140: fd6d ce3d d717 1dbe 9b7b b13d 7041 153e
00000150: a219 3a3e bf86 10be 3add a33d d61a 233e
00000160: c78f 243e 7fdd 1f3e 7875 24be 5b3d 0ebe
00000170: 9907 fa3d 29df 573e 6977 623e 8994 0b3e
00000180: 6921 e93d dafa 1d3e 13aa b73d 95b8 9f3d
00000190: 85bc 74bc 4fa1 0ebe 2b71 1cbd 374b 20bd
000001a0: 2d65 ab3d ba08 2f3d 4c3c 2ebe ab71 4bbe
000001b0: a410 2abe 7810 ac3d d2be 043e c877 acbc
000001c0: 46a2 03bd 35b8 153e 781f 16be 115f c5bd
000001d0: 6a27 90bd 05eb 2e3d 6561 c53d 3a54 53be
000001e0: 205c eabd 2e34 1c3e 835e 5d3e 87df c63d
000001f0: b9dd 0c3e fe3b f6bd 0203 0bbe cc3c 553e
00000200: 0b1c be3d b00d 173e 420d 2fbd c861 e13d
00000210: a07b 4cbe fb9a 02be 9308 f83c d07d ff3d
00000220: 19f1 c3bd 21af 993d abf4 3a3e 9a18 3cbe
00000230: af7b 593d 0599 fb3d 681a 11be dd6b 103e
00000240: 7fb7 40be 44aa 36be 3d6a 263d 116e abbd
00000250: b0fa 4abe 375c f3bc 787b 42bd 5087 98bd
00000260: 051e 603e f961 87bd 13b2 babd 0ad0 b23d
00000270: 41a4 79bc defe 2dbe c0c5 bfbc 4368 8c3d
00000280: 2fa2 37bd fcb0 573e f549 c03d e268 8ebd
00000290: 478e 113d d5bc fe3d 6e4c 9abc 2bd4 22be
000002a0: 9918 7c3d 71ad 5abd de9e 1c3e 45d2 623d
000002b0: 03e8 1dbd 08f0 303e 284a d73d 8a63 293e
000002c0: 29fc a13d 5734 3c3d 9241 563d effe d8bd
000002d0: 45d6 1f3d cd1e 25be 6086 19be e84b 00be
000002e0: 5278 353e be04 383e e90a 8abd 4839 1b3e
000002f0: 7150 3b3e 016e 503e fd7e 0cbe 708b 0bbd
00000300: b1b4 8c3d 90b3 123e 67be 1b3e 91dd 9e3d
00000310: c879 4bbe 2a86 d03c a908 0abe 734d 933d
00000320: fb29 883c 3002 f93d 1837 8ebc 7eae 583d
00000330: 17af 253e 240c b83d 19ab 51be ce8f 10be
00000340: 4d53 6a3d fa3d 2abe 1fd7 f5bd b94f 0d3e
00000350: acb5 3cbe ba16 6cbc caf5 33be 8553 4ebd
00000360: 8d32 133e 92f1 20be 81a9 48bd b41a 013d
00000370: 327f 15be b9c0 013e 37e1 b9bd c7fc e43d
00000380: bf03 1dbe 6169 093e 7457 093e 4f81 eb3c
00000390: 72c2 55bd eac7 483b 66b9 3cbe 7c4c 66bd
000003a0: 3dea 13be 0754 b1bd 1afd 47be 55c0 1c3e
000003b0: 7d66 033d 11a6 b2bd 44f1 32be 05b2 99bd
000003c0: 8418 d03c 0b49 9abd b909 ab3d d91f f5bd
000003d0: 0b1e a3bc 7824 043e 1103 e0bd 779d a6bc
000003e0: 46ca d7bd 9fe6 523e 59c6 04be efd8 5bbd
000003f0: fc0e 383e 8cfe 493e 14df e33c 2c56 ab3c

bias f4 [16]
-0.045215815 -0.028131347 0.12644179 0.1439169 0.06889817 0.1747841 -0.048282888 -0.038687866
0.0444676 -0.040970817 0.1900621 -0.16947716 0.02166703 -0.039602928 -0.08504061 -0.12507905
00000000: 3834 39bd b673 e6bc f579 013e f45e 133e
00000010: 7c1a 8d3d 9afa 323e 47c4 45bd 2b77 1ebd
00000020: a823 363d 04d1 27bd a49f 423e 6c8b 2dbe
00000030: 0e7f b13c ae36 22bd c529 aebd b914 00be

weight f4 [32, 16, 1, 1]
0.028004648 0.10613058 -0.28255907 0.17568585 0.22103098 -0.16774423 -0.030353284 -0.2511175
-0.22249593 0.043424968 -0.121995315 -0.13141076 -0.066970795 0.16760221 -0.24222393 -0.23444358
-0.123999655 0.057348114 0.1777275 -0.0006249108 -0.16347592 -0.020277862 0.08603427 -0.086025216
-0.049978264 -0.0021399315 0.1789907 -0.25069717 -0.14328314 -0.047847692 -0.031452693 -0.25909644
0.14671326 0.0014151694 -0.13548577 -0.17620158 0.072460756 0.019696029 0.16520134 0.24354753
-0.07565729 -0.16139084 -0.061422523 -0.16935089 0.26571742 -0.1279253 0.22040385 -0.22644514
-0.08535447 0.15822883 0.23316538 -0.0860871 -0.076637715 -0.23648547 0.26347053 0.045136556
-0.10121706 0.056679364 0.1002683 -0.015287944 0.3043705 -0.11860623 0.04187618 0.31437537
0.2499922 0.217493 0.16187091 0.014449816 -0.06409084 0.05456229 0.11154248 -0.12451931
0.067624204 0.04215833 -0.19779472 -0.08763442 -0.16825417 0.15786271 0.08055125 0.012662464
0.14193001 0.14187643 -0.27791336 0.0074044904 -0.06425363 0.29937595 0.0043307636 -0.26485124
-0.20791447 -0.12617023 -0.22660506 -0.2261098 0.016877396 -0.1797261 -0.16276857 -0.017600056
-0.11301844 0.06707968 -0.015737716 0.17407803 0.0774878 -0.13484526 -0.1812847 0.19846794
-0.14882669 -0.21795517 0.041866664 0.19855663 0.20422128 -0.0683609 0.009749931 0.18777226
0.23544149 -0.07716787 0.16929254 0.19276239 -0.040190082 0.13533096 0.22376953 -0.13080654
0.14624467 -0.11810429 -0.13530274 0.1715207 -0.09421086 0.2031752 0.10987553 0.021570323
-0.025460871 -0.04846338 0.18825915 0.06374443 -0.23639917 0.15257622 -0.18483914 -0.1349041
0.096063174 0.0843239 -0.12973769 -0.083753355 0.17635305 -0.18957905 0.10481006 -0.22757557
0.19871289 -0.13661835 0.0063031944 0.14031407 0.26436034 0.14207268 0.2479513 -0.11592233
0.1745628 0.11445449 0.055845518 -0.18757397 -0.19811623 0.1363343 -0.0015012886 -0.18729363
-6.639861e-05 0.0024471302 -0.09573454 0.03560894 -0.107798874 0.013830335 -0.058513768 0.22198372
0.17699407 0.19723743 0.06476671 -0.024912268 0.21261832 -0.19245052 0.008933963 0.23292482
0.10134619 0.16049223 -0.32799077 0.04336129 0.14311647 0.07351093 -0.022389743 -0.0001950263
-0.046687357 -0.33276463 -0.08110969 0.06812919 -0.32390043 -0.18793616 -0.13237786 0.14551555
0.29179707 0.08351468 -0.14657706 0.16183963 -0.00808745 0.27165896 -0.034202095 0.08786092
0.12028582 0.17348616 -0.11538976 0.07223648 0.039266285 0.009480956 -0.08090711 -0.107149266
-0.16356423 -0.030030102 0.17518815 -0.18521151 0.061847985 0.029552013 -0.007013589 -0.043177545
-0.0840489 -0.13878056 -0.1996536 -0.20069683 0.14089811 0.1260561 0.19036147 0.24766138
0.22375101 -0.13819902 0.24118184 0.079655424 0.1714593 -0.17390247 0.07523855 0.029695883
-0.2456866 0.05754374 -0.20047341 -0.13444267 0.20102169 -0.15759549 0.26094967 0.13788745
-0.23940639 -0.009382914 -0.29000247 0.1602811 0.21541627 0.095558666 0.05108505 -0.058681913
-0.09684007 -0.2519322 0.23176633 0.06577965 -0.18654999 0.18996294 -0.12965035 -0.054838378
00000000: 016a e53c fd5a d93d 95ab 90be fee6 333e
00000010: f255 623e 25c5 2bbe 73a7 f8bc 7992 80be
00000020: f9d5 63be 61de 313d aed8 f9bd 8b90 06be
00000030: fc27 89bd ea9f 2b3e 8d09 78be fa11 70be
00000040: 88f3 fdbd dbe5 6a3d 33fe 353e 0ed1 23ba
00000050: 3b66 27be c21d a6bc bc32 b03d fd2d b0bd
00000060: 02b6 4cbd 183e 0cbb 5749 373e 615b 80be
00000070: d1b8 12be f1fb 43bd 8ad4 00bd 4aa8 84be
00000080: 003c 163e 357d b93a c8bc 0abe 306e 34be
00000090: 4e66 943d 9159 a13c 8a2a 293e 8664 793e
000000a0: 36f2 9abd a443 25be 2f96 7bbd 526a 2dbe
000000b0: 1d0c 883e dafe 02be 8cb1 613e 3ce1 67be
000000c0: 53ce aebd bd06 223e e8c2 6e3e 6f4e b0bd
000000d0: 3cf4 9cbd 3f29 72be 9ce5 863e 1ce1 383d
000000e0: e44a cfbd 9f28 683d 7759 cd3d 497a 7abc
000000f0: 73d6 9b3e d3e7 f2bd 5b86 2b3d cff5 a03e
00000100: f5fd 7f3e 7cb6 5e3e 7dc1 253e ecbe 6c3c
00000110: 0f42 83bd b57c 5f3d 6270 e43d fb03 ffbd
00000120: 8f7e 8a3d 37ae 2c3d b38a 4abe ad79 b3bd
00000130: d24a 2cbe c3a6 213e 0ef8 a43d 3976 4f3c
00000140: 1a56 113e 0e48 113e a94a 8ebe 5ea1 f23b
00000150: 6897 83bd ce47 993e 14e9 8d3b 959a 87be
00000160: 88e7 54be c532 01be 280b 68be 5489 67be
00000170: 7742 8a3c 1e0a 38be ceac 26be fe2d 90bc
00000180: 3676 e7bd 1261 893d 62ec 80bc 8341 323e
00000190: ecb1 9e3d e014 0abe b2a2 39be 2e3b 4b3e
000001a0: 0666 18be a42f 5fbe 617c 2b3d 6e52 4b3e
000001b0: 621f 513e cd00 8cbd 2dbe 1f3c 5f47 403e
000001c0: 9317 713e 300a 9ebd 065b 2d3e 8163 453e
000001d0: 5b9e 24bd 3394 0a3e d723 653e 26f2 05be
000001e0: 2ac1 153e a9e0 f1bd cd8c 0abe 1fa3 2f3e
000001f0: a0f1 c0bd 290d 503e 6c06 e13d 3fb4 b03c
00000200: 5193 d0bc 8a81 46bd 02c7 403e 718c 823d
00000210: a012 72be f13c 1c3e 7946 3dbe 4d24 0abe
00000220: c5bc c43d 02b2 ac3d f5d9 04be e186 abbd
00000230: e595 343e 0321 42be a8a6 d63d 9209 69be
00000240: 647b 4b3e aee5 0bbe 078b ce3b 7eae 0f3e
00000250: 3d5a 873e 807b 113e f2e6 7d3e b068 edbd
00000260: 97c0 323e 1e67 ea3d 45be 643d 6413 40be
00000270: fbde 4abe 389b 0b3e e3c6 c4ba e7c9 3fbe
00000280: 7b3f 8bb8 0860 203b 7810 c4bd aeda 113d
00000290: a8c5 dcbd a198 623c 22ac 6fbd b34f 633e
000002a0: ef3d 353e 9cf8 493e 69a4 843d d014 ccbc
000002b0: 9eb8 593e c011 45be c25f 123c d883 6e3e
000002c0: 978e cf3d 1358 243e 68ee a7be 9c9b 313d
000002d0: 208d 123e e68c 963d b26a b7bc f97f 4cb9
000002e0: 3e3b 3fbd 2060 aabe d61c a6bd 5187 8b3d
000002f0: 47d6 a5be 5672 40be 108e 07be 0702 153e
00000300: 6d66 953e bf09 ab3d 4c18 16be 4ab9 253e
00000310: 3981 04bc e216 8b3e 7f17 0cbd 6df0 b33d
00000320: 6958 f63d 5ba6 313e 7751 ecbd b8f0 933d
00000330: afd5 203d 0356 1b3c a0b2 a5bd 1371 dbbd
00000340: 627d 27be b001 f6bc 8664 333e 16a8 3dbe
00000350: 5054 7d3d 1017 f23c 40d2 e5bb f0da 30bd
00000360: d421 acbd 7e1c 0ebe fe71 4cbe 7883 4dbe
00000370: 9847 103e da14 013e 1eee 423e f29a 7d3e
00000380: fc1e 653e 0b84 0dbe 5ff8 763e 6222 a33d
00000390: 0793 2f3e 7d13 32be ab16 9a3d c844 f33c
000003a0: 4595 7bbe fcb2 6b3d e748 4dbe 57ab 09be
000003b0: a1d8 4d3e b660 21be 329b 853e 5e32 0d3e
000003c0: f326 75be cbba 19bc 347b 94be bb20 243e
000003d0: 1596 5c3e 43b4 c33d 8f3e 513d 725c 70bd
000003e0: 1654 c6bd 42fd 80be 2754 6d3e 7bb7 863d
000003f0: f606 3fbe a585 423e 10c3 04be 359e 60bd

bias f4 [32]
-0.13044606 0.21158157 0.117563225 0.02179101 0.19308683 0.0110740345 0.25158176 -0.021240972
0.014932886 -0.2129821 -0.030264584 0.0005825723 -0.12858401 -0.038019 0.019794432 0.15626986
0.020723868 0.09803099 -0.121356025 -0.046682183 0.123191886 -0.12656422 0.15774964 0.08803698
0.21523951 0.11755629 0.07412047 0.20333591 -0.16531658 -0.007720305 0.07141911 -0.15835163
00000000: a793 05be d7a8 583e fdc4 f03d 0f83 b23c
00000010: 8eb8 453e de6f 353c 53cf 803e 8c01 aebc
00000020: 10a9 743c fb17 5abe 6fed f7bc c4b7 183a
00000030: 87ab 03be d0b9 1bbd ef27 a23c 3505 203e
00000040: 1ac5 a93c 79c4 c83d 8289 f8bd d135 3fbd
00000050: 074c fc3d 0d9a 01be 1f89 213e bb4c b43d
00000060: bf67 5c3e 5ac1 f03d 79cc 973d 4a37 503e
00000070: c048 29be 9dfa fcbb 2f44 923d ee26 22be

weight f4 [13, 32, 1, 1]
-0.15548982 -0.1713683 -0.15230025 -0.053062733 0.15749876 0.04939966 -0.04898452 0.11547969
-0.03130727 -0.12538065 0.0932443 -0.14640856 -0.03040092 -0.13426226 0.11983893 0.03240942
-0.06960694 0.10672083 -0.11424172 -0.11461384 -0.009593249 0.08486085 0.08081021 0.10963059
-0.030073917 -0.028795771 -0.076387666 -0.0042438074 0.050500207 -0.077017054 -0.07609013 0.07055058
0.06773633 0.18001257 -0.12750104 -0.03881989 -0.073018625 0.07678748 0.17261322 0.06372915
0.06042558 -0.043281984 -0.071509026 -0.031449158 -0.030307172 -0.10133908 0.00060509745 -0.07702371
-0.064132124 0.18602054 -0.05945478 -0.12012468 0.06630535 0.12152438 -0.00589259 -0.013660936
-0.010241373 0.0643383 -0.03771662 -0.07189831 -0.06525647 0.1289681 0.16039585 0.12388484
-0.060902946 0.04669471 0.14749646 -0.25133085 0.040100046 0.027688542 -0.09357048 -0.008005629
0.16591994 0.13890885 0.06399555 -0.092656545 -0.0030398124 0.047387555 0.064265065 0.1661292
0.05255556 0.04157155 0.101463825 -0.053695418 -0.022510076 0.009241494 -0.12954435 -0.13263701
-0.059139617 -0.096166395 0.13683958 0.0617966 -0.010297128 0.25164267 0.04818213 0.022975717
0.13431777 -0.17779027 0.094433755 0.19865425 -0.105121404 -0.15721671 -0.042199053 -0.03806367
-0.13508984 -0.19083016 -0.06672614 -0.027463604 0.21884002 0.14102575 0.023073472 -0.056363318
0.11744549 0.057186913 -0.05583155 0.11481876 -0.011072392 0.05233215 0.1399488 -0.13475011
-0.1828694 0.077813156 -0.01787384 -0.13884045 0.032544848 -0.1872128 -0.059160464 0.034873992
0.082107164 -0.08487749 0.14085151 0.24182029 -0.033893235 -0.17273264 0.09906577 0.01655081
-0.013384773 -0.14312454 -0.017706892 0.27173364 0.040137492 -0.030730553 0.12720886 -0.07281424
0.054678164 -0.055470485 -0.018671393 0.122231595 -0.15250784 -0.07884987 0.15992883 0.1667049
-0.03659354 0.10871155 -0.15942419 0.0069618146 -0.13940135 -0.22863036 -0.090045184 -0.14001746
0.0059610354 -0.1626327 0.15794045 -0.005316978 -0.0051856176 0.045721006 0.09538844 -0.1766974
0.037351552 0.14514981 -0.15392418 -0.0022617087 -0.17512377 -0.08996084 0.0831557 0.16287783
-0.16768605 0.09347556 0.10006517 0.1412551 0.11722459 -0.13326925 0.09019372 -0.03389477
0.050046265 -0.030315343 -0.027394298 0.114925034 -0.1724372 0.1283917 0.06600588 -0.11009031
-0.04965492 -0.14442606 0.0154542755 -0.12044983 -0.1583157 -0.009381283 -0.0077945287 0.0005654914
-0.083574936 0.05119425 -0.00948883 0.23816492 -0.12473727 0.16796023 0.08525154 0.12284387
-0.13138805 0.17701937 0.12923032 0.13744926 0.033236835 -0.01674056 0.02957163 0.04431445
0.12509654 -0.0551686 -0.05140193 0.058099713 0.06104655 0.11403136 -0.05692138 0.08019796
-0.10794227 0.074303195 0.006964558 -0.11678676 0.10104268 -0.22315852 0.07813037 0.0786342
0.122785635 -0.06863144 0.022878148 0.15316503 -0.103861876 -0.15374911 0.11970167 -0.087920256
-0.012874582 -0.044454318 -0.057009168 0.026339097 0.1581853 -0.16213766 -0.1821214 0.16806135
-0.07144711 -0.000923899 -0.0054574665 -0.1358614 -0.14503282 -0.07357037 0.16482675 0.029919423
00000000: b938 1fbe 2c7b 2fbe 99f4 1bbe 4f58 59bd
00000010: 5b47 213e 4c57 4a3d fea3 48bd 9e80 ec3d
00000020: 0d3c 00bd c963 00be def6 be3d 20ec 15be
00000030: 5a0b f9bc 0c7c 09be 1d6e f53d bdbf 043d
00000040: 158e 8ebd 7390 da3d 90f7 e9bd a9ba eabd
00000050: 012d 1dbc 86cb ad3d d37f a53d 0186 e03d
00000060: 935d f6bc 1ce5 ebbc 2371 9cbd a30f 8bbb
00000070: 4ed9 4e3d 1ebb 9dbd 24d5 9bbd d37c 903d
00000080: 58b9 8a3d 3755 383e a28f 02be 9b01 1fbd
00000090: ca8a 95bd c142 9d3d 85c1 303e 6e84 823d
000000a0: d080 773d 7348 31bd 5373 92bd d5d0 00bd
000000b0: bf46 f8bc dd8a cfbd 679f 1e3a 9bbe 9dbd
000000c0: b457 83bd 2b7c 3e3e db86 73bd ee03 f6bd
000000d0: 19cb 873d c6e1 f83d a116 c1bb 1ed2 5fbc
000000e0: 6fcb 27bc ccc3 833d be7c 1abd 6c3f 93bd
000000f0: 2fa5 85bd 3710 043e cf3e 243e 56b7 fd3d
00000100: 5e75 79bd f442 3f3d 5009 173e 70ae 80be
00000110: f23f 243d 15d3 e23c e1a1 bfbd 0b2a 03bc
00000120: ebe6 293e 1f3e 0e3e 1910 833d b7c2 bdbd
00000130: 9737 47bb 7419 423d 679d 833d c61d 2a3e
00000140: 8044 573d ee46 2a3d 44cc cf3d baef 5bbd
00000150: 0d67 b8bc a369 173c 46a7 04be ffd1 07be
00000160: 623c 72bd e3f2 c4bd ad1f 0c3e 6f1e 7d3d
00000170: 49b5 28bc 4fd7 803e a05a 453d 9237 bc3c
00000180: 998a 093e a70e 36be 7c66 c13d 056c 4b3e
00000190: e449 d7bd 6bfd 20be ead8 2cbd a7e8 1bbd
000001a0: fe54 0abe fb68 43be b7a7 88bd 5afb e0bc
000001b0: 9917 603e 0e69 103e 9404 bd3c 39dd 66bd
000001c0: 4387 f03d d33c 6a3d a0af 64bd 1926 eb3d
000001d0: fa68 35bc 3d5a 563d bd4e 0f3e effb 09be
000001e0: 1e42 3bbe 815c 9f3d 296c 92bc 312c 0ebe
000001f0: bf4d 053d b6b4 3fbe 3e52 72bd 08d8 0e3d
00000200: cd27 a83d 40d4 adbd 613b 103e bd9f 773e
00000210: a2d3 0abd d3e0 30be ffe2 ca3d 9095 873c
00000220: cf4b 5bbc 3d8f 12be 0b0e 91bc ac20 8b3e
00000230: 3667 243d a4be fbbc 0a43 023e a21f 95bd
00000240: 36f6 5f3d 0535 63bd c0f4 98bc 8f54 fa3d
00000250: 042b 1cbe 0a7c a1bd 62c4 233e b0b4 2a3e
00000260: 1ce3 15bd 29a4 de3d 1840 23be ef1f e43b
00000270: 3abf 0ebe 141e 6abe 9c69 b8bd bd60 0fbe
00000280: ca54 c33b 3089 26be 24bb 213e 0b3a aebb
00000290: 1dec a9bb f345 3b3d 045b c33d 2af0 34be
000002a0: f1fd 183d 27a2 143e 4d9e 1dbe 2d39 14bb
000002b0: a553 33be 643d b8bd 894d aa3d 72c9 263e
000002c0: e4b5 2bbe 1d70 bf3d f8ee cc3d 2da5 103e
000002d0: 7213 f03d bc77 08be 7cb7 b83d 3ed5 0abd
000002e0: 50fd 4c3d e257 f8bc 026a e0bc d15d eb3d
000002f0: 6193 30be 1d79 033e 172e 873d 0777 e1bd
00000300: f562 4bbd 6de4 13be ee33 7d3c 67ae f6bd
00000310: 831d 22be f4b3 19bc 3f69 ffbb 7c3d 143a
00000320: 5629 abbd 10b1 513d 0a77 1bbc 81e1 733e
00000330: 4176 ffbd c4fd 2b3e 5c98 ae3d 9195 fb3d
00000340: 978a 06be 9144 353e f454 043e 80bf 0c3e
00000350: 5923 083d 8023 89bc 3440 f23c 1283 353d
00000360: 4f19 003e 78f8 61bd d58a 52bd f7f9 6d3d
00000370: f20b 7a3d 4689 e93d 6526 69bd d43e a43d
00000380: d610 ddbd 462c 983d f236 e43b e62d efbd
00000390: 77ef ce3d ab83 64be d102 a03d f80a a13d
000003a0: 0977 fb3d a48e 8cbd f46a bb3c 4bd7 1c3e
000003b0: 89b5 d4bd 6870 1dbe 2626 f53d 890f b4bd
000003c0: e9ef 52bc bb15 36bd 7282 69bd 17c5 d73c
000003d0: 54fb 213e 6a07 26be 087e 3abe 4618 2c3e
000003e0: dd52 92bd d031 72ba 8cd4 b2bb 401f 0bbe
000003f0: 7c83 14be 10ac 96bd 58c8 283e 9419 f53c

bias f4 [13]
-0.06715912 0.11503402 -0.043668687 0.032291308 -0.034830615 0.0598327 0.13336049 0.06577995
-0.15646636 -0.0067350473 -0.10787946 -0.10996447 -0.03588762
00000000: b98a 89bd f596 eb3d f0dd 32bd e443 043d
00000010: 8caa 0ebd 2213 753d a78f 083e a3b7 863d
00000020: b838 20be acb1 dcbb e8ef dcbd 0d35 e1bd
00000030: e6fe 12bd

weight f4 [16, 13, 3, 3]
-0.03495982 -0.07052009 -0.029433196 0.0011345067 -0.07819831 -0.034963273 0.050706513 0.078931004
-0.0025362293 -0.053687748 -0.0392384 0.1049638 -0.019349355 -0.06959877 0.08385543 -0.07114534
-0.088332206 -0.014064561 -0.061051495 0.08865284 -0.021167142 0.049817923 -0.077926725 -0.027164513
0.020979369 -0.0799986 0.073418334 0.042139504 -0.054762613 0.07431225 -0.018827409 -0.0025805377
0.06481426 0.05491506 0.048080113 0.09765624 0.02661168 0.01285433 0.05749658 -0.021663956
-0.055743475 0.095675446 0.03154565 0.08228234 -0.06297627 0.0033570372 -0.09222879 -0.031830482
0.06138449 0.047127325 0.01370813 -0.11137764 -0.095899284 0.020401224 0.021536397 0.062359247
0.07504146 -0.08443425 -0.030257797 -0.006415721 0.009715558 0.010546092 -0.049973402 0.063227125
0.067887545 0.06394154 -0.05216573 0.082943596 -0.057168454 -0.017052382 0.0047005718 -0.09385388
-0.029315792 0.062128395 0.0022862747 0.040954933 0.006656404 -0.036481325 -0.009903649 -0.06308359
0.049693976 0.1500348 0.05510656 0.074523486 -0.050848868 0.054402318 0.06375568 -0.03689831
-0.0673018 0.011544007 0.028245354 0.05009662 -0.05694607 -0.0058515132 0.03353712 0.05548809
0.0067356513 -0.008133072 -0.031509902 0.08554675 -0.067137554 -0.08055166 0.035735663 -0.075799935
-0.093079664 -0.012119667 -0.107608646 0.006504534 -0.027547793 -0.06063362 -0.07266091 -0.027846336
-0.019317977 0.023443017 0.03695285 -0.04006938 0.033533163 -0.05103013 -0.0084922975 -0.031055152
-0.02301592 0.03540952 -0.05866103 -0.044348877 -0.028893353 -0.07609916 0.017526606 -0.022561263
0.020364013 -0.044475734 0.08083724 -0.060571235 -0.019619897 0.10330135 0.09343432 0.002195044
-0.109848045 0.0834543 0.026436256 0.0066366205 -0.021479975 -0.03910207 -0.06839968 -0.09520934
-0.07996597 -0.011086263 -0.007902287 -0.035353404 -0.081009716 0.0036376778 0.08930868 0.08571476
-0.045021433 0.00830773 0.060388573 0.08210995 0.075012214 -0.029577298 0.108406246 -0.047781765
-0.047532026 -0.060740482 0.062216885 -0.06775747 0.02007324 0.08156686 0.08282618 0.07405289
0.07207134 -0.06330306 0.06300751 -0.042494737 0.103713594 0.011440297 0.04377229 -0.028168263
0.0021083325 0.031755578 -0.064305626 0.023504883 -0.060928136 0.024242887 0.105595954 0.04549105
-0.023394916 -0.05304981 0.060671438 0.088190705 -0.022299739 -0.01638564 -0.0745509 -0.052345622
0.0516509 0.041001018 -0.083336346 -0.07483274 0.0034483715 -0.005884156 -0.037945617 0.009075267
-0.0075183366 -0.09486483 -0.070213236 -0.018334502 0.032669015 0.062003598 -0.020765543 -0.05881494
-0.10205064 0.017006494 0.013866608 0.006568268 -0.07016085 0.029286817 0.013953861 0.09659338
-0.04571046 -0.093168065 0.016687842 0.05153884 -0.024778144 0.005911326 0.056244027 -0.030085199
-0.05083894 -0.0603606 -0.017288195 0.041455965 -0.04113927 0.062988795 0.030649466 0.086742245
0.109795235 -0.0059951115 -0.071253754 0.03336021 0.030517166 -0.071966186 0.09178502 -0.11190404
-0.035782356 -0.04748763 0.063828535 0.09621669 0.07354819 -0.07859281 -0.043754295 0.095005356
-0.0059661684 -0.027456202 0.10272896 -0.08723866 0.089443505 0.053045314 -0.0138928965 -0.08182547
00000000: 0732 0fbd d66c 90bd e31d f1bc bab3 943a
00000010: 7026 a0bd a635 0fbd a2b1 4f3d 94a6 a13d
00000020: de36 26bb afe7 5bbd 72b8 20bd 43f7 d63d
00000030: 8a82 9ebc cd89 8ebd 65bc ab3d a6b4 91bd
00000040: 84e7 b4bd 0b6f 66bc 2211 7abd 9f8f b53d
00000050: b766 adbc e10d 4c3d 0c98 9fbd 1d88 debc
00000060: eddc ab3c 4ed6 a3bd 5a5c 963d 799a 2c3d
00000070: c34e 60bd 0531 983d f03b 9abc 3d1e 29bb
00000080: 57bd 843d 9dee 603d a7ef 443d ffff c73d
00000090: bd00 da3c f89a 523c 8981 6b3d 9c78 b1bc
000000a0: 4553 64bd 7df1 c33d 0336 013d a583 a83d
000000b0: b4f9 80bd bd01 5c3b 73e2 bcbd ae60 02bd
000000c0: 4e6e 7b3d 9508 413d 1198 603c f619 e4bd
000000d0: d866 c4bd 7820 a73c 196d b03c 696c 7f3d
000000e0: 56af 993d ddeb acbd 33df f7bc f83a d2bb
000000f0: 012e 1f3c 84c9 2c3c e9b0 4cbd 397d 813d
00000100: a008 8b3d c8f3 823d bcab 55bd 55de a93d
00000110: 7829 6abd 70b1 8bbc 4107 9a3b 7736 c0bd
00000120: ac27 f0bc 587a 7e3d 53d5 153b 5cc0 273d
00000130: f71d da3b 716d 15bd ea42 22bc f831 81bd
00000140: e98b 4b3d b9a2 193e 6bb7 613d c59f 983d
00000150: e746 50bd f7d4 5e3d 5792 823d af22 17bd
00000160: 87d5 89bd 1323 3d3c cd62 e73c 1d32 4d3d
00000170: 4840 69bd 0dbe bfbb 385e 093d 7b47 633d
00000180: bdb6 dc3b 9440 05bc 8710 01bd 2233 af3d
00000190: 6a7f 89bd 45f8 a4bd 8f5f 123d ff3c 9bbd
000001a0: 8da0 bebd 9191 46bc ec61 dcbd fc23 d53b
000001b0: e9ab e1bc f55a 78bd 3ecf 94bd 001e e4bc
000001c0: bc40 9ebc 920b c03c df5b 173d ca1f 24bd
000001d0: 125a 093d f804 51bd 4723 0bbc 6067 febc
000001e0: e28b bcbc 9309 113d 8c46 70bd 2ba7 35bd
000001f0: c1b1 ecbc e0d9 9bbd f593 8f3c 66d2 b8bc
00000200: 6ed2 a63c 302c 36bd ff8d a53d 8b19 78bd
00000210: e8b9 a0bc a88f d33d 7e5a bf3d bada 0f3b
00000220: 03f8 e0bd 17ea aa3d d990 d83c 0278 d93b
00000230: c6f6 afbc 7e29 20bd 2215 8cbd 1dfd c2bd
00000240: 33c5 a3bd 28a3 35bc 9878 01bc bbce 10bd
00000250: 6ce8 a5bd 1b66 6e3b 78e7 b63d 388b af3d
00000260: 6568 38bd 251d 083c 025a 773d 4329 a83d
00000270: 01a0 993d 174c f2bc 1804 de3d d0b6 43bd
00000280: f1b0 42bd 03cb 78bd 22d7 7e3d 6ec4 8abd
00000290: a370 a43c 870c a73d c6a0 a93d 0ba9 973d
000002a0: 249a 933d 09a5 81bd 150a 813d f60e 2ebd
000002b0: cb67 d43d 1570 3b3c 934a 333d 21c1 e6bc
000002c0: f32b 0a3b 2312 023d abb2 83bd 508d c03c
000002d0: c88f 79bd 0599 c63c b142 d83d d354 3a3d
000002e0: b2a6 bfbc c24a 59bd 9d82 783d 549d b43d
000002f0: f1ad b6bc 2d3b 86bc 24ae 98bd 5d68 56bd
00000300: e58f 533d aff0 273d 3fac aabd e841 99bd
00000310: 13fe 613b e1cf c0bb dd6c 1bbd 6eb0 143c
00000320: 615c f6bb 7e48 c2bd f5cb 8fbd 3d32 96bc
00000330: f2cf 053d 7cf7 7d3d 801c aabc efe7 70bd
00000340: edff d0bd 3451 8b3c c530 633c a03a d73b
00000350: 7eb0 8fbd e8ea ef3c bc9e 643c c0d2 c53d
00000360: e43a 3bbd e6ce bebd f1b4 883c 641a 533d
00000370: 89fb cabc ccb3 c13b 2360 663d 3c75 f6bc
00000380: 7e3c 50bd ad3c 77bd f99f 8dbc bbcd 293d
00000390: a781 28bd 4500 813d 9714 fb3c eba5 b13d
000003a0: 53dc e03d a472 c4bb 7ded 91bd b7a4 083d
000003b0: 23ff f93c 0263 93bd c9f9 bb3d f22d e5bd
000003c0: 8590 12bd 6482 42bd 89b8 823d 420d c53d
000003d0: 6fa0 963d 44f5 a0bd b437 33bd 2b92 c23d
000003e0: d97f c3bb d4eb e0bc 9063 d23d 2faa b2bd
000003f0: 282e b73d 0b46 593d 089f 63bc 1d94 a7bd

bias f4 [16]
-0.06318741 -0.03174273 -0.069342405 0.0107831 0.034833416 0.078349486 0.0020580043 -0.01526393
-0.04676768 -0.06825121 0.062446617 0.022491487 -0.0367673 0.0954549 0.014157648 -0.0036260223
00000000: 6768 81bd aa04 02bd 6403 8ebd 99ab 303c
00000010: 7cad 0e3d b275 a03d 95df 063b 9015 7abc
00000020: 788f 3fbd 4ac7 8bbd 06c8 7f3d 1140 b83c
00000030: 4f99 16bd dc7d c33d 7bf5 673c 8fa2 6dbb

weight f4 [32, 16, 1, 1]
-0.014649644 -0.17749156 0.12637766 0.039777327 0.08160941 0.23282054 -0.011401396 0.07414487
-0.1759547 -0.1798035 0.20516014 0.18229248 0.028747555 0.13417569 -0.021916358 0.17694184
0.14974473 -0.071742214 0.2256686 -0.1750785 -0.018853232 0.13285252 0.06937552 -0.17116761
0.18168324 0.25842956 0.063799545 -0.14311014 -0.06512325 0.028152104 -0.13937283 -0.007719412
-0.21005756 -0.04232014 0.15806507 0.19137879 0.0109125525 0.2683028 -0.007938026 0.1983246
0.19344047 -0.1890629 0.07499516 -0.20190234 -0.13856705 -0.17608492 -0.16978051 0.22970554
-0.123806946 0.19061704 0.19524966 -0.14310747 -0.16036616 0.042941935 -0.100498125 -0.18639064
-0.21171679 0.27497002 0.21635349 -0.121115185 0.20770507 0.089085706 0.094049744 0.010495463
0.066785336 0.01630526 0.008903651 -0.21019876 0.099323176 0.24920225 0.1379469 0.0651266
0.08736004 -0.068966866 0.15772776 -0.060823683 -0.19185822 0.0023321204 0.07102423 0.20830157
0.16177414 0.22091818 -0.1988884 -0.26050577 -0.20996065 -0.117419034 -0.21946791 0.07260635
0.2824148 0.21649952 0.07263193 -0.065139055 0.04503479 -0.10119176 -0.036415398 -0.12692644
0.22439866 0.25109935 0.1731071 -0.19423851 -0.12552482 -0.18610792 -0.23112488 0.08616181
-0.21013941 0.17563283 0.2781913 -0.24630715 0.0705774 -0.11958765 -0.1963303 -0.029791437
0.034625635 0.15778862 -0.13052045 -0.22955306 -0.035891578 -0.18312809 0.18456498 0.07370869
-0.123073764 0.046454195 0.020756412 0.16319358 0.013530697 0.04526047 -0.14203112 -0.0945286
-0.04164324 0.27276736 0.15160896 -0.14030185 -0.09308359 0.22866406 -0.016957397 0.020030236
-0.054304678 0.21976866 -0.11809434 -0.08073386 -0.10062385 0.13173676 0.13725623 -0.21313709
-0.043884616 0.2840944 0.092553265 -0.04296534 0.1861349 0.17530175 0.19996831 -0.010134264
0.0523219 0.1970939 -0.22228235 -0.12206587 0.06688059 0.110740244 0.24917348 0.09853064
-0.20354384 -0.078535125 -0.06812586 -0.07500506 0.012037712 0.039613448 0.15591149 -0.15784694
0.014418177 -0.0060242442 0.2096785 -0.180857 -0.038241696 -0.0010929493 -0.08134761 -0.17134693
0.12087258 -0.17497347 -0.15079491 0.20204787 0.017376995 0.34739822 0.20759198 -0.22458117
0.21045664 -0.12486577 -0.048037168 -0.19182639 -0.28929934 0.18015294 0.19863221 0.17950585
0.14325751 -0.1837775 -0.04441092 0.035920464 -0.12444768 -0.04252408 -0.014502361 0.11103259
-0.14701039 -0.20014736 0.07178639 0.057824112 -0.14220369 0.109987274 -0.22056055 0.09954661
0.22999053 0.14426416 0.070788205 0.20919034 -0.10622406 -0.22316769 0.2598031 0.06445879
0.11884804 0.20830098 0.06483518 0.16728242 -0.11904372 0.063503124 0.13928302 0.10475183
-0.22279406 0.17025435 0.0009393575 -0.15598871 0.20688911 -0.2948994 0.05302375 0.023982782
-0.15716708 -0.008895313 0.24469766 -0.18930255 0.17357352 0.2820335 0.23670636 -0.032627065
-0.094838694 0.12110432 -0.1805322 0.03734638 -0.18902251 -0.29602367 0.13904423 -0.09173746
-0.2405893 0.07738259 -0.029046688 0.19893898 0.26265323 0.23081057 0.2020872 -0.081504315
00000000: 0f05 70bc 59c0 35be 2569 013e 8ded 223d
00000010: d622 a73d 8268 6e3e eccc 3abc 44d9 973d
00000020: 782d 34be 691e 38be 8015 523e e1aa 3a3e
00000030: fe7f eb3c 5a65 093e ef89 b3bc 3e30 353e
00000040: af56 193e 95ed 92bd ab15 673e c747 33be
00000050: 1872 9abc 7e0a 083e c114 8e3d 9046 2fbe
00000060: 2c0b 3a3e e150 843e 56a9 823d 778b 12be
00000070: 575f 85bd 3e9f e63c c0b7 0ebe 1ff3 fcbb
00000080: 5419 57be e257 2dbd cfdb 213e cdf8 433e
00000090: 90ca 323c fc5e 893e 7f0e 02bc 9b15 4b3e
000000a0: 4215 463e b499 41be 1097 993d 7dbf 4ebe
000000b0: 85e4 0dbe 9b4f 34be f1da 2dbe ee37 6b3e
000000c0: 7f8e fdbd 1d31 433e 87ef 473e c48a 12be
000000d0: 0737 24be e2e3 2f3d f6d1 cdbd 30dd 3ebe
000000e0: 49cc 58be dfc8 8c3e c58b 5d3e 3d0b f8bd
000000f0: a3b0 543e 9172 b63d 279d c03d 2af5 2b3c
00000100: c0c6 883d 9c92 853c 9ee0 113c 583e 57be
00000110: f369 cb3d e02e 7f3e f441 0d3e 1861 853d
00000120: d2e9 b23d 803e 8dbd 6383 213e 4122 79bd
00000130: 7b76 44be 7dd6 183b 2775 913d 024d 553e
00000140: 1fa8 253e 6038 623e 67a9 4bbe 0361 85be
00000150: edff 56be 6479 f0bd 32bc 60be a3b2 943d
00000160: ac98 903e 0db2 5d3e 0dc0 943d a067 85bd
00000170: 6676 383d a03d cfbd 5028 15bd 01f9 01be
00000180: c3c8 653e 1890 803e fd42 313e 76e6 46be
00000190: 9489 00be 1393 3ebe 00ac 6cbe 9a75 b03d
000001a0: c92e 57be 18d9 333e 176f 8e3e f137 7cbe
000001b0: e28a 903d 5fea f4bd cf0a 49be 2c0d f4bc
000001c0: 9cd3 0d3d 5793 213e 27a7 05be f50f 6bbe
000001d0: 0c03 13bd ee85 3bbe 9afe 3c3e 95f4 963d
000001e0: 190e fcbd c146 3e3d 5a09 aa3c 381c 273e
000001f0: dbaf 5d3c 0b63 393d 9b70 11be 3698 c1bd
00000200: 1a92 2abd 2aa8 8b3e 613f 1b3e 4aab 0fbe
00000210: 9ca2 bebd e926 6a3e 3dea 8abc 7316 a43c
00000220: 956e 5ebd 090b 613e 72db f1bd cb57 a5bd
00000230: e113 cebd 00e6 063e e68c 0c3e 9c40 5abe
00000240: 5bc0 33bd d274 913e 918c bd3d 6dfc 2fbd
00000250: 269a 3e3e 4d82 333e 7ec4 4c3e 2f0a 26bc
00000260: 7d4f 563d fcd2 493e fc9d 63be acfd f9bd
00000270: b1f8 883d c8cb e23d 5527 7f3e 6fca c93d
00000280: cc6d 50be 06d7 a0bd 9285 8bbd 419c 99bd
00000290: d339 453c b641 223d 43a7 1f3e a1a2 21be
000002a0: 383a 6c3c 0667 c5bb f6b5 563e 9432 39be
000002b0: 53a3 1cbd 4b41 8fba 9399 a6bd 9275 2fbe
000002c0: 0b8c f73d 3f2c 33be fb69 1abe a3e5 4e3e
000002d0: 335a 8e3c 2ede b13e fe92 543e 9bf8 65be
000002e0: f281 573e a0b9 ffbd 9fc2 44bd 236e 44be
000002f0: 0b1f 94be 037a 383e 3e66 4b3e 62d0 373e
00000300: 19b2 123e 2b30 3cbe 3ae8 35bd 5621 133d
00000310: 6dde febd bb2d 2ebd 509b 6dbc 0e65 e33d
00000320: e489 16be 6ef3 4cbe be04 933d fad8 6c3d
00000330: d89d 11be 0241 e13d a0da 61be 18df cb3d
00000340: a382 6b3e fcb9 133e 68f9 903d fe35 563e
00000350: 008c d9bd 1286 64be e904 853e f802 843d
00000360: 9a66 f33d da4c 553e 4fc8 843d 154c 2b3e
00000370: 32cd f3bd ed0d 823d 35a0 0e3e 2188 d63d
00000380: 2024 64be 2857 2e3e 373f 763a 81bb 1fbe
00000390: bdda 533e 0efd 96be 6f2f 593d 8a77 c43c
000003a0: 68f0 20be a6bd 11bc 0692 7a3e 87d8 41be
000003b0: 42bd 313e b266 903e 2763 723e f5a3 05bd
000003c0: ca3a c2bd 8b05 f83d 6fdd 38be 85f8 183d
000003d0: 1e8f 41be 6a90 97be 9c61 0e3e d9e0 bbbd
000003e0: 0b5d 76be c37a 9e3d 52f3 edbc a9b6 4b3e
000003f0: 7c7a 863e 9b59 6c3e f2ef 4e3e bceb a6bd

bias f4 [32]
-0.12324825 0.24649645 0.0036546816 0.07077971 0.124074906 0.14942957 -0.10384853 0.20262256
-0.039944205 -0.11480383 -0.06314426 -0.1504313 0.053603005 -0.0887233 -0.15874097 -0.006894521
-0.09829631 0.14953841 0.21002226 -0.20930675 0.08988004 0.018568715 0.07426453 -0.041324027
-0.1443903 0.22315878 0.00064737146 0.09927481 0.20197153 0.25055403 0.08251652 0.045954578
00000000: 9469 fcbd 9169 7c3e 6283 6f3b f4f4 903d
00000010: fc1a fe3d 1104 193e 8aae d4bd 4a7c 4f3e
00000020: 899c 23bd 451e ebbd c751 81bd aa0a 1abe
00000030: d38e 5b3d 90b4 b5bd fe8c 22be 6feb e1bb
00000040: 934f c9bd 9920 193e 1310 573e 8254 56be
00000050: 0713 b83d 6b1d 983c 0018 983d 6243 29bd
00000060: 0ddb 13be bc83 643e 5db4 293a 9750 cb3d
00000070: a0d1 4e3e 9e48 803e 6cfe a83d de3a 3c3d

weight f4 [13, 32, 1, 1]
-0.1769337 -0.06479936 0.14962517 0.1469121 0.045232758 0.101903774 0.24404182 -0.04408318
-0.04614678 -0.22074376 -0.011062813 -0.08048292 0.021825662 -0.040286317 0.041064404 0.14168625
0.00216406 -0.024892772 0.09926313 0.045248035 0.18407874 0.17082545 -0.111148745 0.008988986
0.12348476 -0.19679275 -0.12339196 0.14476737 0.06584575 -0.04766445 0.15891747 -0.11601832
0.05393136 -0.13464236 -0.07805025 -0.13072881 -0.06320214 -0.012436241 0.084701754 0.04488019
-0.157852 -0.050206557 0.014809607 -0.059285354 -0.049469568 -0.1629702 -0.0062545757 -0.09039197
-0.059624195 -0.041013658 -0.11371454 0.044626366 -0.0014337882 -0.19036725 -0.15420428 0.119080015
0.045614578 0.11328931 -0.10435554 0.10917657 0.076573186 0.06386199 0.15118593 0.12205114
0.16832343 0.018626822 -0.022287862 -0.01267332 -0.11698949 0.020480838 0.12930779 -0.033533268
-0.020076994 0.11556956 -0.15864182 0.020033386 0.032292295 0.052187737 0.0047833016 0.013378203
-0.010386977 0.10460526 -0.14824104 -0.026076382 0.044051602 -0.050638605 0.031037027 -0.026101647
0.15760495 0.15234083 -0.20472702 0.3007604 0.0080394875 0.14987907 0.13408281 0.18431053
0.026018726 -0.13603613 -0.017811475 0.13325584 0.114681765 -0.10016028 -0.022334438 0.13189164
0.10964813 0.24128002 0.05769023 0.16047361 -0.0028592732 0.020239463 -0.08765504 -0.12659141
0.11250523 0.07461209 -0.086421885 0.017558208 -0.2686493 -0.05168198 -0.25912556 -0.23552446
-0.10148291 -0.04643424 -0.09717559 -0.2006606 0.10263928 0.14297494 -0.11284328 -0.061543636
0.096458234 -0.10149663 -0.016864996 -0.069518186 0.12104497 -0.11214337 -0.26686785 -0.09987787
-0.20374662 0.042692486 -0.04856174 -0.1791614 0.1493088 -0.023192486 -0.035234097 0.15158775
0.15617089 0.021674661 0.055438325 -0.059861567 0.10071637 -0.06613851 -0.2256078 -0.12473222
-0.10184188 -0.088329315 0.07370306 -0.25886723 -0.14664494 -0.11661003 0.15481335 0.022315625
-0.19400446 -0.107555956 0.07139212 -0.06501492 -0.15917051 -0.2151297 0.037192695 0.0063096764
-0.088148795 -0.081880465 -0.013608878 0.02336138 -0.14803395 0.14902475 -0.16629538 -0.13978934
-0.17996679 -0.028700765 -0.1856254 -0.11805964 -0.044041153 0.08906378 0.026212612 0.009936443
-0.040324304 0.049953002 -0.05477269 0.12771714 0.12591074 -0.18850726 0.121047504 -0.033473358
0.10359298 -0.12972769 0.012776974 0.16867204 0.1196454 -0.15770179 -0.04256434 -0.16212001
-0.038997076 0.14979228 -0.14152871 -0.16987671 -0.11511236 0.0066464585 0.13634978 0.014793498
-0.14428343 0.018264724 0.029655948 0.089398354 0.0761104 -0.18077102 -0.060442735 0.036851406
0.023017073 0.16385673 0.011085374 0.19258876 0.089931734 -0.06600269 -0.15862414 0.15036781
-0.17643352 -0.17269751 -0.14739245 -0.113044545 -0.107240304 0.03829664 0.025386682 -0.10219274
-0.048793796 0.012058179 -0.09627745 0.03756534 -0.043046575 0.16696075 -0.0032320307 -0.15188457
0.031990543 0.030727284 0.12559605 0.07847467 0.19931762 -0.08963841 -0.0429491 0.004175106
-0.14209989 -0.05009473 0.08481976 0.045448754 -0.07931042 0.10294393 0.14852248 0.004989075
00000000: 1c2e 35be 87b5 84bd 5737 193e 2070 163e
00000010: fc45 393d edb2 d03d 19e6 793e 9190 34bd
00000020: 6804 3dbd a70a 62be cd40 35bc 3bd4 a4bd
00000030: bbcb b23c 4403 25bd 2633 283d 3316 113e
00000040: e7d2 0d3b edeb cbbc 784a cb3d 0156 393d
00000050: 237f 3c3e deec 2e3e f4a1 e3bd 8a46 133c
00000060: 94e5 fc3d 0a84 49be edb4 fcbd e63d 143e
00000070: 23da 863d cc3b 43bd 43bb 223e 039b edbd
00000080: 21e7 5c3d b0df 09be cfd8 9fbd c6dd 05be
00000090: 2070 81bd 60c1 4bbc 1d78 ad3d 4ad4 373d
000000a0: f4a3 21be 64a5 4dbd fea3 723c 33d5 72bd
000000b0: 9aa0 4abd a9e1 26be 2ff3 ccbb 6d1f b9bd
000000c0: 8038 74bd f0fd 27bd 2be3 e8bd 23ca 363d
000000d0: f3ed bbba a2ef 42be bae7 1dbe 39e0 f33d
000000e0: 5ad6 3a3d 3a04 e83d 5bb8 d5bd f797 df3d
000000f0: 67d2 9c3d 13ca 823d 7cd0 1a3e f3f5 f93d
00000100: fa5c 2c3e 4797 983c 0995 b6bc c2a3 4fbc
00000110: 3098 efbd 6ec7 a73c 4369 043e 2e5a 09bd
00000120: 8278 a4bc bcaf ec3d 0073 22be 0e1d a43c
00000130: ed44 043d cfc2 553d 3ebd 9c3b 4030 5b3c
00000140: 242e 2abc 483b d63d 80cc 17be 239e d5bc
00000150: 746f 343d 6d6a 4fbd 5d41 fe3c 1fd3 d5bc
00000160: 3163 213e 3cff 1b3e f6a3 51be 44fd 993e
00000170: 0eb8 033c e679 193e 014d 093e e6bb 3c3e
00000180: 3925 d53c 0e4d 0bbe 5fe9 91bc 3874 083e
00000190: 46de ea3d d520 cdbd b6f6 b6bc 9a0e 073e
000001a0: 338f e03d 1c12 773e 974c 6c3d 3253 243e
000001b0: a562 3bbb 3bcd a53c 7c84 b3bd 2ea1 01be
000001c0: 2469 e63d 39ce 983d f5fd b0bd 3bd6 8f3c
000001d0: 678c 89be 7cb0 53bd 1bac 84be 532d 71be
000001e0: 46d6 cfbd d431 3ebd ff03 c7bd f979 4dbe
000001f0: 8b34 d23d 0668 123e 611a e7bd 2e15 7cbd
00000200: e58b c53d 77dd cfbd 7628 8abc 8d5f 8ebd
00000210: 6de6 f73d 6cab e5bd e7a2 88be c58c ccbd
00000220: f4a2 50be 51de 2e3d ade8 46bd 1676 37be
00000230: 68e4 183e 2bfe bdbc a151 10bd d239 1b3e
00000240: 43eb 1f3e 0f8f b13c 4c13 633d 6731 75bd
00000250: 6244 ce3d a173 87bd bb05 67be 9b73 ffbd
00000260: 7a92 d0bd 00e6 b4bd a1f1 963d 3f8a 84be
00000270: 172a 16be 3dd1 eebd 6487 1e3e 42cf b63c
00000280: 1ba9 46be 4c46 dcbd 0836 923d 8b26 85bd
00000290: 98fd 22be f64a 5cbe 5e57 183d 67c1 ce3b
000002a0: 5b87 b4bd f2b0 a7bd c5f7 5ebc 5d60 bf3c
000002b0: 3696 17be f299 183e 5649 2abe f024 0fbe
000002c0: 3749 38be de1d ebbc 9614 3ebe 41c9 f1bd
000002d0: 7f64 34bd 1267 b63d d5bb d63c 76cc 223c
000002e0: 192b 25bd 859b 4c3d 5459 60bd 48c8 023e
000002f0: bfee 003e 0c08 41be c1e7 f73d 5c1b 09bd
00000300: 8e28 d43d 56d7 04be 8356 513c 5db8 2c3e
00000310: a608 f53d 947c 21be f257 2ebd ca02 26be
00000320: 66bb 1fbd 2663 193e e7ec 10be 29f4 2dbe
00000330: 07c0 ebbd 89ca d93b 479f 0b3e 6e60 723c
00000340: 09bf 13be e79f 953c 08f1 f23c 7c16 b73d
00000350: c5df 9b3d 0a1c 39be cd92 77bd 80f1 163d
00000360: 4d8e bc3c 0fca 273e 6e9f 353c fd35 453e
00000370: 212e b83d 6b2c 87bd 5e6e 22be 05fa 193e
00000380: fdaa 34be 9ed7 30be 0cee 16be e683 e7bd
00000390: cea0 dbbd f0dc 1c3d bbf7 cf3c 6d4a d1bd
000003a0: 01dc 47bd ab8f 453c 1d2d c5bd 1dde 193d
000003b0: 9b51 30bd c2f7 2a3e 7ad0 53bb a187 1bbe
000003c0: 8408 033d c9b7 fb3c 409c 003e 54b7 a03d
000003d0: eb19 4c3e 5894 b7bd 65eb 2fbd 54cf 883b
000003e0: a282 11be 2230 4dbd fbb5 ad3d 7928 3a3d
000003f0: 806d a2bd 44d4 d23d 4716 183e 657b a33b

bias f4 [13]
-0.14651513 -0.16380063 -0.1616006 -0.060240537 -0.06943731 0.1438315 -0.09836408 -0.011897089
-0.17431116 0.011420662 -0.00451953 -0.03617958 -0.0038774698
00000000: 1008 16be 5abb 27be a17a 25be c8be 76bd
00000010: 2635 8ebd 9148 133e 1b73 c9bd 02ec 42bc
00000020: a07e 32be ba1d 3b3c 9118 94bb 0a31 14bd
00000030: 261d 7ebb

weight f4 [16, 13, 3, 3]
0.008336686 0.072843015 -0.10189612 -0.083154194 -0.055638913 -0.01147225 0.08105614 -0.014492429
-0.06730848 0.05407606 -0.0121330535 0.008099382 -0.026310597 0.037800647 0.07329859 0.07664653
0.035861146 -0.0095367655 -0.0041409256 -0.035463613 -0.06676744 -0.004600837 0.0043656332 -0.023109736
0.04148008 -0.04294362 0.07405379 0.04938549 0.019881224 -0.07667008 -0.11888275 -0.09658033
0.0029495012 -0.04436131 -0.00681938 0.05551809 0.09356992 0.0006845455 -0.08756125 0.04055952
-0.007920069 -0.046818174 0.089990385 0.08689154 0.042105097 0.074582435 -0.058781937 0.07821394
0.024873935 0.080546826 -0.055643577 0.04888148 0.07893981 0.12148196 0.09974542 -0.051111057
-0.0023900443 0.095664725 0.03143827 0.066024326 0.001597522 0.006258818 0.054588657 0.080315076
-0.08950732 -0.021987999 -0.0774758 0.030902067 -0.01841766 -0.038211398 0.06953112 -0.06234413
-0.013950257 -0.025308032 0.058761276 0.07324993 0.00025166935 0.05796496 -0.018531552 -0.091724336
0.011215501 0.124707185 0.011546666 -0.10789532 0.075721875 -0.049220216 -0.015059825 -0.018498696
-0.0017586501 -0.08027636 -0.057391863 0.010331982 0.06317471 0.086810715 -0.07412502 0.010456076
-0.058782227 -0.06658288 0.078423925 0.06121784 -0.032662008 -0.034792118 0.044169445 0.03226302
-0.012716041 0.009665613 0.056438122 0.061582975 -0.06432124 0.027678981 0.08959125 0.03533439
0.05703101 0.015223582 0.063071005 0.06460926 0.08286218 0.040517617 0.05621076 0.06609064
0.025005177 0.06795926 0.072095565 0.05685823 -0.07475815 0.06870107 0.07761445 -0.04008089
-0.0036071301 -0.009377852 -0.088531755 -0.05639915 0.08850731 -0.008931951 0.07718697 -0.0052112974
0.046998136 0.058919806 0.03741843 0.08510021 -0.05284089 -0.059340395 0.017268648 -0.08543196
0.04444984 -0.044957638 -0.103838645 -0.09855743 -0.087100044 -0.017319378 0.06013783 -0.109831296
0.051610168 0.0894954 0.094805524 0.040723428 0.06369175 0.057321638 -0.04319949 0.11171094
0.09211473 0.00080739096 -0.079077706 -0.028432816 0.010352731 0.12287936 -0.0608181 0.05047604
0.05357538 0.046935126 -0.027437272 -0.012151309 -0.04400467 -0.062006403 -0.038613394 0.06259468
0.08322122 0.007942966 -0.09281568 -0.041201033 0.026634807 0.036018547 0.06993794 0.056279775
0.070915885 -0.028578682 -0.0391806 0.094263434 0.10355112 -0.003286619 0.008430739 0.06584072
-0.011588677 0.077465236 0.074652694 -0.006996956 0.03599015 -0.08764573 -0.052509356 0.06149059
0.055937644 -0.08271035 -0.02405536 -0.053961106 0.06396913 -0.09566287 0.04566177 0.08634292
-0.058641575 -0.013364421 0.03504337 0.07691802 -0.06303627 -0.051208533 0.017845673 -0.058319934
-0.040643163 0.04975413 -0.07829795 -0.016558092 0.043074448 -0.077802084 -0.045634273 -0.03799186
-0.049391154 0.08166892 0.043247737 0.03783915 0.052517325 0.015977127 0.0019464913 0.08418438
-0.01190843 0.02802501 -0.056531478 -0.021730755 0.03848961 0.05180643 0.0017676004 0.032937713
-0.051702168 0.007672183 -0.06876634 -0.077710606 0.00015483913 -0.060855933 -0.027343791 -0.0067690457
0.08317186 -0.007614711 -0.0021037657 -0.00092891866 0.07203504 0.043691117 0.054213013 -0.096826635
00000000: 9896 083c b82e 953d eaae d0bd bf4c aabd
00000010: a1e5 63bd 1bf6 3bbc c300 a63d a771 6dbc
00000020: 07d9 89bd dc7e 5d3d b7c9 46bc 45b3 043c
00000030: 5289 d7bc dad4 1a3d 921d 963d dbf8 9c3d
00000040: 23e3 123d 1840 1cbc 9ab0 87bb 4b42 11bd
00000050: 5ebd 88bd 9ec2 96bb 960d 8f3b a150 bdbc
00000060: 04e7 293d a6e5 2fbd 83a9 973d 7148 4a3d
00000070: f3dd a23c 3405 9dbd cd78 f3bd e8cb c5bd
00000080: 6b4c 413b 34b4 35bd 1b75 dfbb f066 633d
00000090: 96a1 bf3d 1273 333a 5053 b3bd bd21 263d
000000a0: 2dc3 01bc 6ac4 3fbd e14c b83d 31f4 b13d
000000b0: 6576 2c3d adbe 983d 54c5 70bd a12e a03d
000000c0: 6cc4 cb3c bcf5 a43d 85ea 63bd f237 483d
000000d0: 32ab a13d 89cb f83d 5447 cc3d d459 51bd
000000e0: 4aa2 1cbb deeb c33d 6ac5 003d c337 873d
000000f0: f163 d13a c516 cd3b 5b98 5f3d 3b7c a43d
00000100: 9d4f b7bd 2d20 b4bc a2ab 9ebd 5526 fd3c
00000110: a2e0 96bc 8e83 1cbd 5566 8e3d 8f5c 7fbd
00000120: 9e8f 64bc ca52 cfbc aaaf 703d 0f04 963d
00000130: 7df2 8339 aa6c 6d3d 7bcf 97bc f8d9 bbbd
00000140: 39c1 373c 7b66 ff3d 3a2e 3d3c 39f8 dcbd
00000150: 1214 9b3d 239b 49bd 7cbd 76bc 948a 97bc
00000160: 8182 e6ba ef67 a4bd bb13 6bbd 7947 293c
00000170: be61 813d d1c9 b13d dcce 97bd f64f 2b3c
00000180: a2c5 70bd 9b5c 88bd b99c a03d 8fbf 7a3d
00000190: 99c8 05bd 2e82 0ebd 05eb 343d 3a26 043d
000001a0: f156 50bc 855c 1e3c a92b 673d 6e3e 7c3d
000001b0: dbba 83bd 08bf e23c 9e7b b73d cbba 103d
000001c0: 5999 693d 556c 793c 5f2b 813d dc51 843d
000001d0: a6b3 a93d cdf5 253d 413d 663d 885a 873d
000001e0: a8d7 cc3c 392e 8b3d d7a6 933d 2de4 683d
000001f0: cd1a 99bd 26b3 8c3d 53f4 9e3d dc2b 24bd
00000200: 9a65 6cbb 90a5 19bc 2350 b5bd cc02 67bd
00000210: 5243 b53d 5157 12bc 3414 9e3d 88c3 aabb
00000220: 1e81 403d e555 713d 1144 193d 0549 ae3d
00000230: b06f 58bd ea0e 73bd fb76 8d3c f4f6 aebd
00000240: 0911 363d 8025 38bd 5ba9 d4bd 7ad8 c9bd
00000250: 8261 b2bd 5ee1 8dbc 1653 763d 3bef e0bd
00000260: 2f65 533d 5d49 b73d 6629 c23d 9ccd 263d
00000270: d270 823d 18ca 6a3d f3f1 30bd b5c8 e43d
00000280: a6a6 bc3d 17a7 533a 7ef3 a1bd f0eb e8bc
00000290: 809e 293c 2da8 fb3d 661c 79bd f7bf 4e3d
000002a0: dc71 5b3d 0c3f 403d 21c4 e0bc 4916 47bc
000002b0: 3e3e 34bd 6dfa 7dbd 1429 1ebd a431 803d
000002c0: e36f aa3d 3723 023c 2616 bebd 6ac2 28bd
000002d0: 3d31 da3c 2f88 133d 9f3b 8f3d 9f85 663d
000002e0: 593c 913d d71d eabc d67b 20bd 300d c13d
000002f0: 9c12 d43d 5164 57bb 1521 0a3c 80d7 863d
00000300: 6fde 3dbc 18a6 9e3d 83e3 983d b946 e5bb
00000310: 686a 133d 9b7f b3bd 0d14 57bd 8fdd 7b3d
00000320: df1e 653d 0b64 a9bd bf0f c5bc 5206 5dbd
00000330: 3f02 833d e5ea c3bd d607 3b3d 8fd4 b03d
00000340: 2632 70bd 72f6 5abc a389 0f3d 3287 9d3d
00000350: 2919 81bd 0ac0 51bd 1731 923c e2e0 6ebd
00000360: 7279 26bd fdca 4b3d ad5a a0bd d6a4 87bc
00000370: d56e 303d b356 9fbd 01eb 3abd 5a9d 1bbd
00000380: 614e 4abd 0942 a73d 8a24 313d 39fd 1a3d
00000390: 681c 573d 77e2 823c 6921 ff3a dc68 ac3d
000003a0: 931b 43bc b594 e53c 8d8d 67bd b204 b2bc
000003b0: 48a7 1d3d fb32 543d d4ae e73a b2e9 063d
000003c0: a7c5 53bd f066 fb3b 5ed5 8cbd bd26 9fbd
000003d0: 505c 2239 1244 79bd 1600 e0bc dfce ddbb
000003e0: 0256 aa3d d384 f9bb 55df 09bb ad82 73ba
000003f0: 1b87 933d 75f5 323d 770e 5e3d 0b4d c6bd

bias f4 [16]
0.065259755 0.07295911 -0.051590536 0.02274869 -0.048670057 -0.067274444 -0.023176106 -0.0024469064
0.014320374 -0.061661083 -0.049413826 0.029450905 -0.08848214 -0.04028394 -0.030272547 -0.007916905
00000000: e8a6 853d 966b 953d 9950 53bd 765b ba3c
00000010: 415a 47bd 2fc7 89bd d1db bdbc 475c 20bb
00000020: 00a0 6a3c 5590 7cbd 2766 4abd 0643 f13c
00000030: 2036 b5bd c600 25bd 22fe f7bc e8b5 01bc
